models/model.pth (torch, 4148 bytes, 6 tensors)

fc1.weight f4 [10, 30]
00000000: e6ca c7bd 80aa 78bd 0281 0bbe 7234 d73c
00000010: 2106 453e f395 d13d fd95 083e 8074 303e
00000020: 8c1f be3d fcf7 a7bd 19a7 143e a145 253e
00000030: ec17 f3bc 8850 183d a13d 873d 655e 8b3c
00000040: 98da 84bd e827 8c3c aeca 5b3e 92e5 a73d
00000050: 8f84 803d a8bc 063e 1425 c4bc 4822 e6bd
00000060: b2fc 1ebe f2b0 fcbd 1f44 553d 12d0 b53b
00000070: cf47 8b3c 2f01 17bd 10bc 903d 54b8 1abd
00000080: dbf7 ad3d b80e b03c 59f4 dcbd 5b81 833c
00000090: 2581 9dbd 224b ed3d b19f 18be 78ee bcbd
000000a0: ef32 babd a753 f3bd f72f c3bd 954e 22be
000000b0: d22e 0dbe 7426 a93d 86c8 5ebc 3440 99bd
000000c0: 7c4a 173e 0a6e ff3d ed4d 5b3c 6f19 c93d
000000d0: 140a 3fbd eeb3 2fbe 1277 ccbd 8c7e 733d
000000e0: d18d 383c 35ac 123d 4ee5 00be 2cb7 093e
000000f0: c82a b73e e25e ce3e 0d8d ce3e 2898 c03e
00000100: 74f4 293d 30b7 423e 829a 353e 4fb6 0c3f
00000110: 39d0 1f3e f3a8 9ebe 8932 c33e 1a5f ba3c
00000120: 662f 383c 9d5c 973c 38f4 96bd ea46 10be
00000130: d25b 43be 3da3 503d 8a89 07be 955b 2abe
00000140: 0ab7 d03e 8825 c93e 8d39 813e 3baa 583e
00000150: bfa4 8f3e 6557 d83d 54d3 bd3e 94e8 263f
00000160: e124 8c3e 0e2b 8ebd 05b2 63bc 31ca 16be
00000170: 0483 933d 0484 173e 1aff 743d 38ed 29be
00000180: 1c98 143e beaf a6bd 1f0c 28be 9a87 17be
00000190: 23fe b0bd 8fc1 03be baa0 003d 9f20 683c
000001a0: 593b 22be 445f f73d b281 1abc 3eaa 1b3d
000001b0: 6791 b63d fba6 a0bd 8949 dd3d 8c1a 0e3e
000001c0: 6efc ad3c e7be 7fbd 707b 8ebd d574 f33d
000001d0: 9773 aa3d 2f4a a8bd 251f 343e 79ed 513d
000001e0: 55ae b8bd 189c 473d 2faf e5bd dc60 e43d
000001f0: 990b 8f3c 9a2d 953d 19bc 553d de7a 1c3e
00000200: 859e ad3d c297 adbd 118f 8fbd e053 3cbd
00000210: b16a 07be 87b6 133d fcf9 ac3d a56b e13d
00000220: 30a2 133e 4cd7 4f3d 05e9 6e3d b569 233d
00000230: 98e5 30be 36c1 3e3e 02e4 c2bd 1738 353e
00000240: 0e09 033e 7b5f 6bbc e119 2f3e 3051 b9bd
00000250: 4be3 e0bd 64d6 053e 5e14 1cbd ccc9 d3bd
00000260: 4bf0 b7bd 1295 96bc aa37 903e 5add 7f3e
00000270: f3c9 e33d 2c5f 9cbd b266 053e de6c 433e
00000280: 527d 223e 8c26 5cbd edd5 243d edd9 03be
00000290: d53d ffbd 07bb 453e 50f7 173c a0ae 0f3d
000002a0: 33a4 b23c 7dfe ed3d 14e9 a8bc 2a23 443e
000002b0: 9097 cb3d 30e9 5d3d 8533 bcbd 509b 033e
000002c0: 0cdf 1ebd 126c 0f3e 9ca3 073d 0abc 063e
000002d0: 93e5 b53d 75b1 a43e 6f95 483e 8904 303e
000002e0: eabb 813d 2cd7 f13d 9a01 8f3e af8c bd3e
000002f0: 22ee 913d ce3f 3ebd 73b9 303e 4d68 c8bd
00000300: ef40 f93c b651 273e babd 073e 16bb 60be
00000310: ed38 693d 369e 3dbe 0f21 af3d 07be 0ebe
00000320: 2415 6c3e 2ba8 be3e 3dc2 233e fe7e 053e
00000330: e14d 1b3e 010f 823e 977d 5f3e 741f c63e
00000340: 71be 5e3e 228a c63d f6b2 403c 398c fabc
00000350: fe6b d8bd 5bc7 2b3e eeac 353e b46f 9abd
00000360: ff42 2dbe 2276 183e 7fed 90bd af39 11be
00000370: e89b 1bbe f50c e6bd 3169 27bd f170 a03c
00000380: 0e37 203d 3e11 2fbd 2855 32be e404 c6bd
00000390: 4148 29bd 0259 1c3e 0fcf 33be fbf4 af3d
000003a0: d0a2 063e dbe5 8abc fe2a 423d 8519 a4bd
000003b0: 0088 16be 29d4 0e3b 499f 1ebe 1677 a3bd
000003c0: 6a0d 9fbc 64e6 0ebe d4b3 56be 8ec5 e9bb
000003d0: 8ec7 92bc 271e a43d cc1a eebb b8b7 80be
000003e0: 4cd7 b23d 04f1 663e 052c cfbc 740c 013e
000003f0: 1987 033e 0efe 41be 3735 803e f2d4 9d3c
-0.09755497 -0.060709476 -0.13623431 0.026270125 0.19240619 0.10233679 0.13338466 0.17231941
0.09283361 -0.08201596 0.14516868 0.16139843 -0.029674493 0.037186176 0.06603552 0.017012784
-0.06487006 0.017108873 0.21464035 0.08198084 0.062752835 0.13157904 -0.023943461 -0.112370074
-0.15526083 -0.12338437 0.05206692 0.0055484856 0.017002014 -0.036866363 0.0706712 -0.037773445
0.0849454 0.021491393 -0.10788793 0.016052892 -0.07690648 0.11586596 -0.14904667 -0.09225172
-0.09091746 -0.1188119 -0.09530633 -0.15850289 -0.13787392 0.082592875 -0.013597613 -0.07482949
0.14774507 0.1247216 0.013385278 0.09819304 -0.04664047 -0.17158481 -0.09983648 0.059446856
0.01126428 0.03580876 -0.12587473 0.13448781 0.35774827 0.40306765 0.40341988 0.37616086
0.041492894 0.19015193 0.17734721 0.5496568 0.15606774 -0.30988273 0.38124493 0.022750426
0.011241769 0.018476779 -0.073708 -0.14089552 -0.19077995 0.050936926 -0.1323606 -0.16636498
0.40764648 0.39286447 0.2523922 0.21158688 0.2805538 0.10563544 0.37075293 0.65198636
0.27371886 -0.06941806 -0.013897424 -0.14725567 0.072027236 0.14796454 0.059813596 -0.16594398
0.1451115 -0.08138989 -0.16410874 -0.14797822 -0.08642223 -0.12866805 0.03140328 0.014167934
-0.15842952 0.12078717 -0.009430336 0.038004152 0.08914452 -0.07844349 0.10805041 0.13877314
0.021238532 -0.062437918 -0.069571376 0.11887518 0.08322828 -0.082172744 0.17590006 0.051251862
-0.09017626 0.048732847 -0.11215054 0.11151287 0.017461585 0.072840884 0.052181337 0.15281245
0.08477501 -0.08476211 -0.070097096 -0.045978427 -0.13224293 0.036062744 0.08446118 0.1100686
0.14417338 0.050742432 0.058327693 0.039895732 -0.17275083 0.18628392 -0.09516145 0.17697178
0.12796423 -0.014366026 0.17099716 -0.090486884 -0.10980853 0.13070065 -0.03810536 -0.10341224
-0.08981379 -0.01838163 0.28167468 0.24986783 0.11122503 -0.0763534 0.13027456 0.19084498
0.15868118 -0.0537477 0.040243078 -0.12876101 -0.124629654 0.19309627 0.0092752725 0.035078645
0.021806812 0.116208054 -0.020618953 0.19154039 0.09941018 0.054177463 -0.09189514 0.12852216
-0.038786933 0.1400607 0.033115014 0.13157669 0.088816784 0.3216664 0.19588254 0.1718923
0.0633467 0.11808619 0.2793091 0.37021396 0.07125498 -0.046447568 0.17258243 -0.09785519
0.03042647 0.16339764 0.13255969 -0.21946368 0.056939054 -0.18517384 0.08551227 -0.13939677
0.2305494 0.37237677 0.15992065 0.13036725 0.15166427 0.25402072 0.21825252 0.38695872
0.21752335 0.096943155 0.011761418 -0.030584441 -0.10567473 0.16775267 0.17741749 -0.07540837
-0.16920088 0.14888814 -0.07076549 -0.14182161 -0.15196192 -0.1123294 -0.040871803 0.019585105
0.039115004 -0.042741053 -0.17415297 -0.096689016 -0.041328672 0.15268329 -0.17559455 0.08591648
0.13148046 -0.016955307 0.04740428 -0.0801268 -0.14700317 0.0021793938 -0.1549045 -0.07981698
-0.019415576 -0.13955075 -0.20967036 -0.007134146 -0.01791742 0.080135636 -0.007266378 -0.25140166
0.08732471 0.22552878 -0.025289545 0.12602407 0.12844504 -0.1894457 0.250406 0.01926658

fc1.bias f4 [10]
00000000: e51c c63d a281 0bbe 6a89 3ebf 592b 35be
00000010: 26f9 eebc c9a2 fd3e a450 01bf 0cbd 223c
00000020: b374 3c3f 5db8 f6bc
0.0967348 -0.1362367 -0.7442843 -0.17692317 -0.029171538 0.49538258 -0.5051367 0.009932768
0.7361557 -0.030117208

fc2.weight f4 [10, 10]
00000000: 9e3c 843e 147f 2dbe 17e1 823e 9011 91be
00000010: b890 463e 36d0 c9bd 3554 b03e 0f23 b7bd
00000020: f3b8 733d 9e6f 343b 4bc9 ddbd 8612 df3d
00000030: 9165 e43b aa90 81be 1bb9 a0bc 5b7d 78be
00000040: 9775 2e3e ec2e 6b3c 1945 6abe 5b52 7ebd
00000050: ccc5 3d3e d5e6 273e 0490 663f 15fc 20be
00000060: c55b e03d 4782 b53e d550 223f f1cf b33c
00000070: e8dc 803d d235 043a 26a6 4ebe 1377 5f3e
00000080: 16b7 45bd b552 16be 6427 443e c7da 583d
00000090: d89d 2b3e 7a75 0c3e d15c 40bd 583a 63be
000000a0: 887b 94be e0f5 8c3d cf24 923d 6324 243e
000000b0: ac59 4ebe c798 97be 1afa bfbd c066 643e
000000c0: 2968 0ebe c13c 3ebe d8ef 73bd aa17 2a3e
000000d0: 3267 9d3e 58de ba3d 5545 c43c 5015 693e
000000e0: f7f0 f23e 819a 253e 86fe 47bd dd35 57bd
000000f0: 96a9 703e 4701 9fbe 4a69 fd3e 71ed 8f3e
00000100: 8624 3fbe 558c 4d3d 4c2a a93e e924 90be
00000110: f520 ebbc 4680 423e d23f 40be 6035 16bd
00000120: 1137 9bbe 10ed 333e 0294 843e 832e 88be
00000130: 3b78 183d 9094 e43d f0c0 f13c fe21 59be
00000140: 2010 073e 25d9 b03c 1c7b 47be ebd1 533e
00000150: 612a 9bbe 69fe 573e 2f5b 5d3d 2af1 d83d
00000160: 49e2 55bd 2a1b d63d 465d 923e 4da1 15be
00000170: 8410 a3bf 3a8a dbbc 657d 3abc 1776 133f
00000180: d867 44bf c5d2 9ebe b049 6c3f 8bc7 babc
0.25827497 -0.16943008 0.25562355 -0.28333712 0.19391143 -0.09854166 0.34439245 -0.08942234
0.059502553 0.002753235 -0.10829409 0.10892205 0.0069701155 -0.25305682 -0.019619515 -0.2426657
0.17037044 0.014354449 -0.22877921 -0.06209026 0.18532485 0.16396649 0.900635 -0.15721162
0.10955004 0.35450956 0.6340459 0.02194974 0.062921345 0.000504342 -0.20180568 0.21822767
-0.048270307 -0.14679988 0.19155651 0.052943017 0.16759431 0.13716689 -0.046963517 -0.22190225
-0.29000497 0.068828344 0.07135927 0.16029505 -0.20151395 -0.29608747 -0.09373875 0.22304821
-0.13906921 -0.18577863 -0.059554905 0.1661059 0.30742794 0.0912444 0.023958841 0.22762036
0.47449467 0.1617222 -0.048826717 -0.052541602 0.23502192 -0.31055662 0.49494392 0.2811084
-0.18666276 0.05018266 0.33040082 -0.2815316 -0.028702239 0.18994245 -0.18774346 -0.036671996
-0.3031545 0.17570901 0.2589417 -0.26597986 0.037224036 0.111611485 0.029510945 -0.21204373
0.13189745 0.021587918 -0.19480556 0.20685546 -0.3030577 0.21093144 0.054042038 0.105928734
-0.052217755 0.104544 0.28586787 -0.14612313 -1.2739415 -0.02679931 -0.011382435 0.57602066
-0.76720953 -0.3102018 0.9229994 -0.022800228

fc2.bias f4 [10]
00000000: cee0 65be f7db 5bbe a280 b6bd 1be1 59be
00000010: 5fe4 10be f18b 6ebe 8062 023e f1a9 88be
00000020: cbe1 93be efa6 af3f
-0.22449037 -0.21470629 -0.089112535 -0.21277277 -0.14149617 -0.23295571 0.12732887 -0.26692155
-0.28883204 1.3722819

fc3.weight f4 [2, 10]
00000000: 5e22 273d 4269 033c 21f0 59bf ad5f 5c3e
00000010: 7836 7e3e 80a9 babe b0f4 13bf 6d83 903e
00000020: b169 eabd 8ee3 d03f 010e ce3e d2e8 323e
00000030: 96f2 353f 9dfc 893e 7136 1cbd 133f d23e
00000040: f9bb 573e 9f17 86be dcd9 87bc 9aa9 c7bf
0.04080426 0.008020701 -0.8513203 0.21520872 0.24825466 -0.36457443 -0.5779524 0.2822527
-0.1144594 1.6319444 0.4024506 0.17471626 0.7107328 0.2695054 -0.038137857 0.41063747
0.210678 -0.26189896 -0.016583376 -1.5598633

fc3.bias f4 [2]
00000000: 3766 013f b403 ea3c
0.5054659 0.028566219
