models/model4.pth (torch, 405154 bytes, 11 tensors)

lstm1.weight_ih_l0 f4 [320, 1]
0.025784569 0.22611456 0.09458081 0.020362973 0.16594614 -0.09876594 0.09664544 0.030688738
0.23539351 0.059488833 0.10947281 0.2634754 0.1659205 0.11333507 0.26411265 -0.026926367
0.08041519 0.051523115 0.108618736 0.12376955 0.08151084 0.23220411 0.0208007 0.11026048
0.016810095 0.110736735 0.05764628 0.1589255 0.20581686 0.21358275 0.21149023 0.26478758
0.14439397 0.02031145 -0.34231916 0.2452787 0.1390278 0.0520749 0.21330276 0.21577175
0.15387638 0.11759691 0.15089603 0.25185332 0.13976045 0.2529928 0.05467503 0.18480155
0.13670218 0.113351054 0.16899814 0.16563861 0.10327408 0.27688164 0.1270174 0.096456155
0.024338286 0.15494928 0.10307818 0.11564309 0.03924517 0.04879337 -0.012786803 0.10377152
-0.16531448 0.061244532 -0.11882661 0.22394048 0.08686675 0.10116852 0.012665447 0.07823988
0.2518202 0.072725266 0.13521358 0.05572053 -0.019757332 0.05319751 0.2309761 0.15525554
0.13474631 0.1927314 -0.046425104 0.18502592 0.30601445 -0.09523331 0.018909205 0.2041605
0.16587238 0.035804585 0.049520474 0.09069515 0.12428067 0.09017106 0.18569468 0.17142522
0.19623679 0.022483181 0.10409967 0.21371979 0.05191824 0.2310008 0.015858373 0.068374425
-0.03291511 0.26943034 0.14010407 0.22917685 0.26559788 0.19066319 0.14380257 0.2828932
0.11602448 0.15838653 -0.1479365 0.1581136 -0.04431908 0.08355407 0.24677527 0.22393833
0.07459282 0.23306078 0.2395876 0.2514153 0.10888504 0.21815886 0.0934983 0.08820769
0.20862252 0.20034663 0.23916462 0.30804047 0.01590643 0.14814433 0.32169765 0.15150012
-0.10076091 0.2884674 0.12850891 0.034522902 -0.12922634 0.08950838 0.00067976787 0.0032606497
-0.06865053 0.1534162 -0.22183365 0.115116484 0.03699519 -0.04715726 0.0036425374 0.02651815
0.10269649 0.119556986 0.05195191 0.23868604 0.005931839 -0.13138556 0.14865184 0.11174591
-0.20134254 0.25900573 -0.069839746 -0.19018435 0.29553396 -0.09151144 -0.1965456 0.0363391
0.24476613 -0.27197045 0.056602467 0.27192304 -0.28225297 -0.020380687 0.27240837 -0.11942067
0.2980791 -0.12770478 0.028135698 0.17119095 -0.13323523 0.2888899 -0.16050309 -0.0376582
-0.0720634 0.070379406 -0.0638047 0.16391294 0.061259005 0.1559222 0.32457796 0.3782585
-0.3801813 0.17511673 0.31436625 0.29306185 0.043477435 -0.26338953 0.24088825 0.016477661
0.0442062 0.32750338 0.17360897 0.08737177 0.113079965 0.16542625 -0.36238107 0.17168246
0.2708318 -0.15160245 0.042923953 0.3291384 -0.07573235 0.20008413 0.3039019 0.2695376
-0.3960157 0.266868 -0.07527766 0.21527068 0.043879062 -0.021277713 -0.2680526 -0.055605553
0.38814878 0.1547285 0.025274754 0.3485704 -0.05741363 -0.15514895 -0.1863393 -0.3943824
0.30840927 0.051551126 0.28277826 -0.07661671 -0.06337964 -0.03707425 0.1004865 -0.126704
0.22341529 0.20045443 0.03345721 0.09006271 0.22307043 -0.047061015 0.18942437 0.09958472
0.2934804 0.043579314 -0.035482552 0.16572489 0.23990992 0.15556145 0.1926241 0.16676675
00000000: 293a d33c 938a 673e 95b3 c13d 40d0 a63c
00000010: c9ed 293e cc45 cabd 0bee c53d f366 fb3c
00000020: ff0a 713e 90aa 733d 4833 e03d 3fe6 863e
00000030: 10e7 293e 381c e83d c639 873e af94 dcbc
00000040: b8b0 a43d e709 533d 8073 de3d e47a fd3d
00000050: 28ef a63d eac6 6d3e 3b66 aa3c 3fd0 e13d
00000060: 53b5 893c f1c9 e23d 811e 6c3d 5ebd 223e
00000070: a8c1 523e 70b5 5a3e e590 583e 3d92 873e
00000080: 03dc 133e 3364 a63c 7544 afbe 572a 7b3e
00000090: 4e5d 0e3e 7e4c 553d 0a6c 5a3e 45f3 5c3e
000000a0: c591 1d3e a6d6 f03d 7d84 1a3e ebf2 803e
000000b0: 5d1d 0f3e 4688 813e edf2 5f3d 9e3c 3d3e
000000c0: a8fb 0b3e 9924 e83d d90d 2d3e 2b9d 293e
000000d0: 5c81 d33d 6ec3 8d3e d910 023e ce8a c53d
000000e0: 1661 c73c 06ab 1e3e a71a d33d 49d6 ec3d
000000f0: 8bbf 203d 8fdb 473d bd7f 51bc 2a86 d43d
00000100: 3348 29be 8cdb 7a3d 5e5b f3bd a750 653e
00000110: 32e7 b13d 7131 cf3d bc82 4f3c 3b3c a03d
00000120: 94ee 803e fcf0 943d 6e75 0a3e 363b 643d
00000130: 21da a1bc a2e5 593d 0085 6c3e 4ffb 1e3e
00000140: f0fa 093e 615b 453e 4028 3ebd 6f77 3d3e
00000150: edad 9c3e ae09 c3bd 7ae7 9a3c 730f 513e
00000160: 73da 293e d4a7 123d fbd5 4a3d 61be b93d
00000170: dd86 fe3d 9bab b83d bf26 3e3e 188a 2f3e
00000180: 4cf2 483e a62e b83c 3532 d53d 5cd9 5a3e
00000190: 38a8 543d 798b 6c3e 6be9 813c e407 8c3d
000001a0: ffd1 06bd c6f2 893e 7177 0f3e 56ad 6a3e
000001b0: 72fc 873e 363d 433e fb40 133e 61d7 903e
000001c0: 3e9e ed3d 1430 223e aa7c 17be 88e8 213e
000001d0: ec87 35bd 651e ab3d a8b2 7c3e 1750 653e
000001e0: 1fc4 983d 7ca7 6e3e 7456 753e 82b9 803e
000001f0: 1fff de3d 0965 5f3e 097c bf3d 3ca6 b43d
00000200: 24a1 553e ab27 4d3e 92e7 743e 7bb7 9d3e
00000210: 344e 823c 26b3 173e 8eb5 a43e d922 1b3e
00000220: bc5b cebd 00b2 933e d797 033e e367 0d3d
00000230: e953 04be 2b50 b73d 7332 323a a0b0 553b
00000240: a698 8cbd 2319 1d3e 5c28 63be 31c2 eb3d
00000250: 4588 173d f927 41bd a3b7 6e3b 973c d93c
00000260: 8a52 d23d 4bda f43d 87cb 543d 1d6a 743e
00000270: df5f c23b f089 06be 3038 183e 0adb e43d
00000280: bd2c 4ebe 669c 843e 2408 8fbd b0bf 42be
00000290: 3a50 973e 5a6a bbbd 4043 49be 4fd8 143d
000002a0: f9a3 7a3e b63f 8bbe fdd7 673d 7f39 8b3e
000002b0: 7683 90be 66f5 a6bc 1c79 8b3e d392 f4bd
000002c0: d39d 983e 0bc5 02be d67c e63c ae4c 2f3e
000002d0: d16e 08be 61e9 933e ec5a 24be 7c3f 1abd
000002e0: fa95 93bd 1423 903d 0aac 82bd cbd8 273e
000002f0: b9ea 7a3d 12aa 1f3e 152f a63e 19ab c13e
00000300: 20a7 c2be cd51 333e 9df4 a03e 340c 963e
00000310: 6515 323d feda 86be 69ab 763e 29fc 863c
00000320: 8f11 353d 86ae a73e 8dc6 313e f8ef b23d
00000330: 7896 e73d 8065 293e 038a b9be 87cd 2f3e
00000340: 77aa 8a3e ac3d 1bbe 07d1 2f3d d484 a83e
00000350: 9019 9bbd dbe2 4c3e 0899 9b3e d500 8a3e
00000360: 92c2 cabe eca2 883e 2c2b 9abd eb6f 5c3e
00000370: 88ba 333d 994e aebc 313e 89be a6c2 63bd
00000380: 70bb c63e 2671 1e3e 000d cf3c d277 b23e
00000390: 8e2a 6bbd 5edf 1ebe bbcf 3ebe 7dec c9be
000003a0: d2e7 9d3e 4627 533d 50c8 903e 39e9 9cbd
000003b0: 2fcd 81bd 2bdb 17bd decb cd3d b2be 01be
000003c0: fac6 643e ed43 4d3e 6d0a 093d cc72 b83d
000003d0: 936c 643e 0dc3 40bd 76f8 413e 13f3 cb3d
000003e0: 1043 963e 3980 323d 2756 11bd c9b3 293e
000003f0: f2aa 753e 804b 1f3e 413f 453e e7c4 2a3e

lstm1.weight_hh_l0 f4 [320, 80]
-0.028322244 0.1218512 -0.043826945 -0.04969186 0.050675027 0.063570134 -0.03901384 -0.12984338
0.107820675 -0.06221099 -0.10570781 -0.022342794 0.028614033 0.0009191906 0.027423628 -0.15147528
-0.06129791 -0.0050926553 -0.0906369 0.07288276 -0.018706085 0.11825436 -0.13357909 -0.019866306
-0.18444477 0.08959701 -0.08240563 -0.09332669 0.06742966 -0.07948131 -0.027096927 0.048446972
-0.035551306 0.012700932 0.06312786 -0.084245026 0.000683519 -0.0787431 0.1758714 0.00903085
-0.07849875 0.1913647 0.1819576 -0.08904706 -0.027849905 0.04895729 -0.08004555 0.09976276
-0.047094133 -0.1664123 0.0682408 0.018077044 -0.04781618 -0.111950874 -0.047029182 0.062163014
-0.1446909 0.042368192 -0.05876852 0.13143301 -0.036242034 0.060456336 -0.050753 -0.068218514
0.3451937 -0.11753921 -0.018201819 0.22365205 -0.049619764 -0.019956967 -0.011890813 -0.11852818
-0.017718043 0.06090155 0.25074267 -0.03368028 -0.03884509 -0.1205925 0.08997432 -0.10488778
-0.11389736 0.10184179 -0.069110155 -0.078508064 0.12975997 0.009825572 0.04847283 0.10095635
0.10147683 -0.0077596433 -0.094795905 0.0012737052 -0.12253325 -0.0066490322 -0.015517064 -0.032987706
-0.0480583 -0.021726638 0.018099247 0.023646355 -0.06930965 -0.03696394 0.05452158 0.024558445
0.052063663 -0.028812552 -0.019470526 -0.040307734 -0.079343095 -0.035977345 0.12077492 0.019356633
-0.12019843 -0.018600946 0.1084009 0.079102285 -0.114175715 -0.035181865 -0.029778043 0.016770413
-0.09692049 0.1500061 -0.074996345 0.109952986 -0.077534646 0.08756461 -0.014647652 -0.020806475
0.12052848 0.05669396 0.08418574 0.07010898 0.041886996 0.0886169 0.13803424 0.06576699
-0.017086744 0.02669237 0.03351744 0.04376977 0.0030808763 -0.11509081 -0.026494622 -0.06669922
0.22809301 0.018610884 -0.10594172 0.04301423 -0.05550343 -0.011907589 -0.0004759996 -0.02727461
0.08646182 -0.023347106 0.13996458 -0.030526763 0.07365628 0.031843998 -0.040560678 0.020824514
-0.07167546 0.03976436 -0.06644354 -0.011195187 0.020817019 0.04890129 -0.006200922 -0.034146912
-0.070307635 -0.031465422 -0.06545343 0.035915602 0.018759256 -0.05183656 -0.0934096 -0.019484507
0.049118366 -0.06707302 -0.0698382 -0.11020118 0.12388888 0.06436235 0.09993448 -0.03965114
-0.13446325 -0.13768333 -0.06714556 0.033880893 0.055678666 -0.0055746785 0.1341386 0.098097146
-0.04697128 -0.018732551 0.2310824 0.059231367 0.07796323 -0.18947537 0.17910568 -0.03627642
-0.08050918 -0.01577564 -0.02052534 -0.11523912 -0.058406953 -0.07839022 0.022375926 0.07611172
0.06473268 -0.030744102 -0.032856956 0.009078373 0.051387016 0.04584496 -0.012575293 0.031639654
-0.14623249 -0.02903344 0.028349245 0.109141774 -0.020305749 -0.04096648 -0.07452414 0.08507909
0.36256674 0.020680116 0.005484241 0.06658064 0.06329111 -0.04706105 0.010873905 -0.15993452
0.07373109 0.0943704 0.20491 0.04107218 -0.025283724 -0.05865996 0.024985004 -0.10778225
-0.16365963 0.13598044 0.018034147 -0.17272164 0.119828604 -0.007764596 -0.07877908 -0.14920288
-0.031546462 -0.033456072 -7.2992625e-05 0.07716592 -0.15803255 -0.07683069 0.022089768 0.007671102
00000000: 0d04 e8bc 1f8d f93d e283 33bd b189 4bbd
00000010: 9e90 4f3d 0f31 823d facc 1fbd aaf5 04be
00000020: 16d1 dc3d f3d0 7ebd 567d d8bd 3c08 b7bc
00000030: fa67 ea3c d6f5 703a 84a7 e03c 561c 1bbe
00000040: 8413 7bbd 4ae0 a6bb d79f b9bd 8e43 953d
00000050: 813d 99bc 582f f23d f5c8 08be aabe a2bc
00000060: 17df 3cbe a37e b73d 48c4 a8bd 1022 bfbd
00000070: 9018 8a3d 19c7 a2bd 60fa ddbc 5570 463d
00000080: 3f9e 11bd 9217 503c 2e49 813d a888 acbd
00000090: 2f2e 333a 1044 a1bd a217 343e 21f6 133c
000000a0: f4c3 a0bd 1cf5 433e 1853 3a3e 4e5e b6bd
000000b0: 7c25 e4bc 7087 483d ecee a3bd 6b50 cc3d
000000c0: c7e5 40bd fc67 2abe d5c1 8b3d 4f16 943c
000000d0: e6da 43bd 8046 e5bd aca1 40bd a59e 7e3d
000000e0: da29 14be 458a 2d3d 42b7 70bd 6096 063e
000000f0: 8772 14bd 10a1 773d 61e2 4fbd 26b6 8bbd
00000100: 3bbd b03e 66b8 f0bd fb1b 95bc 0b05 653e
00000110: 183e 4bbd cb7c a3bc afd1 42bc e7be f2bd
00000120: 6e25 91bc e773 793d 5861 803e 55f4 09bd
00000130: 071c 1fbd 33f9 f6bd 7544 b83d 68cf d6bd
00000140: 0543 e9bd 6e92 d03d a089 8dbd d6c8 a0bd
00000150: ccdf 043e 70fb 203c 728b 463d 34c2 ce3d
00000160: 16d3 cf3d 9b44 febb 5b24 c2bd 74f2 a63a
00000170: b6f2 fabd 20e0 d9bb 493b 7ebc 1e1e 07bd
00000180: c8d8 44bd 10fc b1bc df44 943c 00b6 c13c
00000190: 38f2 8dbd 8067 17bd 0552 5f3d cb2e c93c
000001a0: b540 553d 4d08 ecbc a780 9fbc b919 25bd
000001b0: a27e a2bd fb5c 13bd d758 f73d cd91 9e3c
000001c0: 982a f6bd 0361 98bc 4b01 de3d 6100 a23d
000001d0: f5d4 e9bd dc1a 10bd 15f1 f3bc 1b62 893c
000001e0: 407e c6bd 339b 193e af97 99bd 082f e13d
000001f0: 7cca 9ebd 1355 b33d b5fc 6fbc 5772 aabc
00000200: a3d7 f63d ed37 683d 9369 ac3d 4c95 8f3d
00000210: b391 2b3d c77c b53d d958 0d3e d8b0 863d
00000220: 80f9 8bbc f5a9 da3c 9549 093d ee47 333d
00000230: 87e8 493b bbb4 ebbd 400b d9bc 9a99 88bd
00000240: 3791 693e da75 983c f9f7 d8bd b02f 303d
00000250: 9157 63bd 0c18 43bc 968f f9b9 016f dfbc
00000260: e512 b13d 6e42 bfbc e052 0f3e 4313 fabc
00000270: 1bd9 963d da6e 023d f422 26bd 2c98 aa3c
00000280: 95ca 92bd f4df 223d 8d13 88bd 056c 37bc
00000290: 7488 aa3c b84c 483d 1b31 cbbb a2dd 0bbd
000002a0: 73fd 8fbd e3e1 00bd 730c 86bd 3d1c 133d
000002b0: 03ad 993c 9352 54bd 884d bfbd f99d 9fbc
000002c0: 5730 493d 945d 89bd 5507 8fbd 28b1 e1bd
000002d0: 74b9 fd3d 68d0 833d 73aa cc3d 3c69 22bd
000002e0: bcb0 09be dcfc 0cbe 9d83 89bd b1c6 0a3d
000002f0: 500f 643d cbab b6bb a15b 093e 28e7 c83d
00000300: f564 40bd 0275 99bc dda0 6c3e 979c 723d
00000310: 30ab 9f3d d505 42be 7b67 373e 9596 14bd
00000320: ffe1 a4bd ea3b 81bc c224 a8bc 7d02 ecbd
00000330: 213c 6fbd 0d8b a0bd b84d b73c 76e0 9b3d
00000340: 9192 843d 0edb fbbc 0495 06bd 75bd 143c
00000350: 317b 523d edc7 3b3d 9a08 4ebc 9598 013d
00000360: f8bd 15be 89d7 edbc ad3c e83c b985 df3d
00000370: 3e58 a6bc 78cc 27bd 1da0 98bd f23d ae3d
00000380: 59a2 b93e 5969 a93c 26b5 b33b 6e5b 883d
00000390: c59e 813d 16c3 40bd 7728 323c e0c5 23be
000003a0: 5300 973d 4545 c13d edd3 513e 4d3b 283d
000003b0: d01f cfbc 6d45 70bd 5aad cc3c f1bc dcbd
000003c0: 6496 27be 753e 0b3e 59bc 933c f1dd 30be
000003d0: b368 f53d 276e febb ed56 a1bd a4c8 18be
000003e0: dd36 01bd 3c09 09bd 9e13 99b8 2a09 9e3d
000003f0: 49d3 21be 6959 9dbd 9af5 b43c de5d fb3b

lstm1.bias_ih_l0 f4 [320]
-0.0839839 -0.06768212 -0.05275353 -0.013317128 0.081365466 -0.063765936 -0.14674868 0.049945246
-0.042652838 0.06759361 -0.030303422 -0.10204273 0.0653177 -0.07421 0.009834115 -0.1353846
0.02500461 -0.10760455 -0.09278242 0.01660365 0.040839247 -0.096130714 -0.063407764 -0.10061267
-0.0423272 -0.083012104 0.027828317 0.0017045456 -0.10293893 0.035968218 -0.074381344 -0.0351446
-0.089247614 0.036554847 0.09998331 -0.07995449 -0.076245494 0.047375064 -0.042946786 -0.04607125
-0.017744496 -0.005557023 -0.15067196 0.07762811 -0.004533743 0.03758702 -0.07668139 -0.013944434
0.033032395 -0.096897796 -0.09155654 -0.056708243 -0.046447787 -0.14662264 0.031981695 -0.0665568
0.031355612 0.03112904 -0.03614098 -0.11137163 -0.090870485 -0.11123967 0.027290843 -0.014091554
0.20321989 -0.017912824 -0.15988708 0.120148525 -0.2398374 -0.022490574 -0.1218244 0.21741283
-0.08970707 -0.060269665 -0.07062829 -0.0013032343 -0.077028066 -0.2244355 -0.10651667 -0.13311005
-0.14822324 0.07720333 -0.11319046 -0.021172164 -0.0065536164 0.012231623 0.057471894 -0.09679546
0.03843664 0.0699824 -0.12438811 0.022491151 -0.112257645 -0.13666287 0.018559985 -0.0010794606
0.07962195 -0.13973777 -0.15379883 0.092372 -0.06971711 0.110931024 -0.080699235 -0.020261968
0.016590089 -0.017202001 -0.08708135 -0.050122093 -0.11343544 -0.0013914334 -0.05651293 0.07713932
0.011902042 -0.0673205 -0.111011915 0.09217677 -0.0203964 0.03976512 -0.11679505 -0.062059857
0.030088438 0.019113598 -0.12771347 0.05947211 0.010181992 0.021273112 0.013613057 0.0622209
0.085797064 -0.11082118 -0.024040326 0.123776026 -0.1282195 0.108512126 -0.035208438 0.040924072
0.2173606 0.14547731 -0.06788307 0.025689352 -0.1396208 -0.10265419 0.02159137 -0.1566782
0.23764618 0.009786397 -0.062498208 0.14547691 -0.095404886 -0.09500836 -0.12982184 0.22945261
0.09521956 0.045066886 0.13372768 -0.054101676 0.056806963 -0.07615135 0.023505686 0.017746745
0.121275865 0.04306884 0.07224177 -0.027414909 -0.032949768 -0.041135993 0.018199563 0.0093315635
-0.047704898 0.014982464 0.03389302 0.008812472 -0.05310885 -0.044316914 -0.0765778 0.023387494
-0.037085034 0.07143829 -0.028860854 -0.037526883 0.012055379 -0.01935601 -0.004075049 0.05048664
0.042606514 0.03801412 -0.03272432 -0.040955976 -0.07251042 0.08312173 -0.025009908 -0.09045681
0.006071353 -0.09697912 -0.0731847 0.028365724 0.044971414 0.061237253 -0.01159944 0.037441704
0.088905215 0.05075587 -0.08919289 0.03753849 0.0023013607 -0.044931363 0.0032809447 -0.034017466
0.004652039 0.06520988 -0.078903496 -0.029627167 0.09851838 -0.036401834 -0.0385069 -0.11241275
-0.02096961 -0.04201962 0.024572758 -0.04866455 -0.008778229 -0.051459763 0.023199145 -0.026253857
-0.044089027 -0.01746034 -0.0699981 -0.074374676 -0.046984307 -0.0062652584 0.032796286 0.06327902
0.056503218 -0.00079974026 -0.025685556 0.04601007 0.09117787 -0.013231273 0.017268604 0.062246263
-0.028589088 0.102415405 -0.032668594 -0.14635071 0.106762156 -0.14087044 0.022959273 -0.11112691
0.081581645 -0.029682461 -0.17461157 0.01269055 0.07731933 -0.094271794 0.11831437 -0.06177763
00000000: c0ff abbd ec9c 8abd 1614 58bd 1530 5abc
00000010: f0a2 a63d b797 82bd 4945 16be 6393 4c3d
00000020: beb4 2ebd 856e 8a3d e23e f8bc c7fb d0bd
00000030: 49c5 853d 6afb 97bd 451f 213c 43a2 0abe
00000040: 78d6 cc3c c65f dcbd b604 bebd 6104 883c
00000050: 0e47 273d 2ee0 c4bd eedb 81bd 040e cebd
00000060: 495f 2dbd 4002 aabd 36f8 e33c 0f6b df3a
00000070: a5d1 d2bd 6953 133d 3f55 98bd c9f3 0fbd
00000080: 74c7 b6bd 89ba 153d 0dc4 cc3d 2ebf a3bd
00000090: 9926 9cbd 5b0c 423d f8e8 2fbd 35b5 3cbd
000000a0: e85c 91bc b017 b6bb c049 1abe 7dfb 9e3d
000000b0: cb8f 94bb d9f4 193d 220b 9dbd 3277 64bc
000000c0: fa4c 073d 5a72 c6bd ff81 bbbd e746 68bd
000000d0: 0940 3ebd 3f24 16be 3dff 023d ee4e 88bd
000000e0: be6e 003d 5402 ff3c 9008 14bd cf16 e4bd
000000f0: 4e1a babd a0d1 e3bd 0c91 df3c 43e0 66bc
00000100: e018 503e eabd 92bc 70b9 23be 6e10 f63d
00000110: ef97 75be 273e b8bc 127f f9bd 78a1 5e3e
00000120: 57b8 b7bd 53dd 76bd 91a5 90bd 49d1 aaba
00000130: e4c0 9dbd 6bd2 65be 6925 dabd 004e 08be
00000140: d5c7 17be c81c 9e3d 66d0 e7bd 3f71 adbc
00000150: b8bf d6bb 2567 483c a667 6b3d b33c c6bd
00000160: bd6f 1d3d ef52 8f3d 32bf febd 5d3f b83c
00000170: 56e7 e5bd 5af1 0bbe 1c0b 983c b07c 8dba
00000180: d510 a33d 6b17 0fbe 717d 1dbe 882d bd3d
00000190: d8c7 8ebd ce2f e33d a445 a5bd 6dfc a5bc
000001a0: f0e7 873c 36eb 8cbc b557 b2bd d34c 4dbd
000001b0: d750 e8bd c260 b6ba 1a7a 67bd 38fb 9d3d
000001c0: c800 433c 55df 89bd 375a e3bd 2dc7 bc3d
000001d0: 5a16 a7bc c0e0 223d 3e32 efbd 7a32 7ebd
000001e0: 077c f63c 1f94 9c3c 52c7 02be 0799 733d
000001f0: 5fd2 263c f344 ae3c 4d09 5f3c 58db 7e3d
00000200: 5fb6 af3d 37f6 e2bd 38f0 c4bc 497e fd3d
00000210: f94b 03be 9b3b de3d b936 10bd 00a0 273d
00000220: c793 5e3e 01f8 143e 4706 8bbd 7a72 d23c
00000230: c1f8 0ebe 5c3c d2bd 63e0 b03c 4070 20be
00000240: 8559 733e 2057 203c 1ffe 7fbd e6f7 143e
00000250: a363 c3bd be93 c2bd 04f0 04be a0f5 6a3e
00000260: 7902 c33d 0e98 383d e9ef 083e b899 5dbd
00000270: 6bae 683d 3df5 9bbd ff8e c03c 9f61 913c
00000280: 7b5f f83d f468 303d 7ef3 933d 3b95 e0bc
00000290: 56f6 06bd 377e 28bd 4017 953c 6ae3 183c
000002a0: 3666 43bd 0279 753c 68d3 0a3d 3062 103c
000002b0: aa88 59bd a785 35bd d2d4 9cbd 2197 bf3c
000002c0: 7ae6 17bd 3d4e 923d 996d ecbc cab5 19bd
000002d0: ed83 453c 7f90 9ebc fd87 85bb 14cb 4e3d
000002e0: 2b84 2e3d b2b4 1b3d f009 06bd 74c1 27bd
000002f0: 5880 94bd ba3b aa3d 94e1 ccbc 6c41 b9bd
00000300: 33f2 c63b fd9c c6bd dce1 95bd 3c5f e83c
00000310: f233 383d ead3 7a3d 940b 3ebc 795c 193d
00000320: f013 b63d 63e5 4f3d c3aa b6bd f6c1 193d
00000330: 6dd2 163b f309 38bd 1e05 573b e655 0bbd
00000340: 2270 983b c28c 853d 2898 a1bd acb4 f2bc
00000350: 01c4 c93d 171a 15bd 69b9 1dbd a838 e6bd
00000360: 76c8 abbc c41c 2cbd cf4c c93c 7b54 47bd
00000370: 90d2 0fbc 79c7 52bd 220c be3c 5412 d7bc
00000380: b296 34bd fd08 8fbc 2a5b 8fbd c051 98bd
00000390: 9e72 40bd cc4c cdbb 6655 063d 6e98 813d
000003a0: eb6f 673d a9a5 51ba 846a d2bc 0e75 3c3d
000003b0: 77bb ba3d fbc7 58bc e376 8d3c f0f5 7e3d
000003c0: aa33 eabc 2bbf d13d 81cf 05bd f6dc 15be
000003d0: 1ea6 da3d 5740 10be 1615 bc3c 8196 e3bd
000003e0: 4714 a73d a228 f3bc 60cd 32be 06ec 4f3c
000003f0: 9959 9e3d 9211 c1bd ce4e f23d 8a0a 7dbd

lstm1.bias_hh_l0 f4 [320]
-0.012779619 -0.019155813 -0.13439286 -0.1388056 0.02488236 -0.06798333 -0.017480467 -0.011436207
-0.018757146 -0.040268958 -0.08231256 0.07437637 -0.057734154 -0.11092001 -0.051780693 -0.15867472
0.066893585 0.02355729 -0.03249353 -0.00364142 -0.1373674 0.07635914 0.007875363 0.0057896934
-0.021319728 -0.14675511 -0.16096382 0.057518512 -0.22186291 -0.05005787 0.040962543 0.0837455
0.05409963 -0.082472235 0.019969445 0.041202355 -0.0099761095 -0.05193158 0.060889088 -0.05907652
-0.073599674 0.086991794 -0.17390746 -0.06377431 -0.0014602247 0.008897693 -0.025983796 0.016487204
-0.023047997 -0.06234639 -0.07801928 -0.011720347 -0.17325424 -0.018159369 0.09866335 -0.03852573
0.06848105 0.104244 -0.16197194 -0.0006819713 -0.13324587 0.04692269 0.045278218 0.007045904
0.2485396 0.018756956 -0.10030197 -0.04118954 -0.20330195 -0.1409635 -0.081403196 0.11109213
0.06634914 -0.15811446 0.0047970503 -0.06318375 -0.080361485 -0.13675883 -0.031717926 -0.03282621
-0.11860888 -0.029217508 -0.03896984 -0.06576468 0.055358905 -0.042275548 -0.15764001 -0.06372355
-0.031942237 -0.05525935 -0.08984755 0.10246464 -0.0675389 -0.067551754 0.122240245 -0.15298215
0.069199644 -0.10930281 -0.21863471 0.08105667 -0.10324381 -0.006482845 0.008026251 -0.008927293
-0.12042249 0.06954991 -0.100182064 0.05268399 -0.16426744 -0.0066583892 0.085553996 0.06531662
-0.060352944 -0.040011805 0.048552424 0.05409248 -0.20011662 0.00832976 -0.072114915 -0.10112893
-0.05219548 -0.007624579 -0.15288647 0.016044227 -0.02025895 0.124515146 -0.002851225 -0.13431595
0.048507653 -0.11287547 0.071312934 0.031236436 -0.10638004 0.089167856 -0.03146587 0.09136625
0.10581311 -0.05557512 -0.09306281 0.062426798 -0.06303268 -0.07610178 -0.05819928 -0.09847487
0.1895896 0.050864138 -0.08959314 0.0878444 -0.2443 -0.11633828 -0.11973818 0.22322813
0.022432756 -0.023493057 -0.021033268 -0.103797495 -0.07611763 -0.095264785 0.10293663 -0.105006784
-0.083546154 -0.043588206 -0.075624615 0.07334415 0.047704525 0.026462777 -0.021670453 0.0037625588
0.06595901 0.008470899 -0.048871398 -0.0042688395 0.09115551 0.04825266 0.0840974 -0.012333539
0.05406428 -0.03781172 0.010649413 0.06632264 -0.0152592715 0.042105258 0.02560365 -0.03590206
-0.015084171 -0.049472414 0.047874454 0.04213551 0.026501983 -0.09533642 0.02515575 0.08617449
0.030431677 0.021142522 -0.10288714 -0.020101177 -0.06910931 0.016613701 -0.045595262 -0.061373953
-0.09825724 -0.07531893 0.017046427 -0.03913535 0.0014947996 0.014877698 -0.0024356795 0.022913113
0.017091354 -0.036568098 0.0719717 0.036216862 -0.058434688 0.056072157 0.061368078 0.03423198
0.1429578 0.05512084 -0.012254959 -0.03329169 0.018050045 0.059927795 0.017861329 0.03558009
-0.11132484 0.032659035 0.046172027 -0.010644729 0.05408942 -0.0006707291 0.0055696475 0.04770393
-0.068188585 -0.0054306947 -0.05861268 -0.020976128 -0.06039378 0.01262344 -0.01141869 -0.030473776
-0.105421655 -0.06282115 0.02918083 -0.015792942 0.07224338 0.019946352 -0.07981348 0.0253889
-0.053685103 0.027049348 0.02323937 -0.10076935 0.057973854 -0.08444528 0.08277011 -0.19020207
00000000: 9b61 51bc a7ec 9cbc 489e 09be 0e23 0ebe
00000010: 17d6 cb3c d83a 8bbd 3233 8fbc ee5e 3bbc
00000020: 96a8 99bc 10f1 24bd 7d93 a8bd a352 983d
00000030: a67a 6cbd 082a e3bd fe17 54bd a07b 22be
00000040: 81ff 883d 38fb c03c f017 05bd e4a4 6ebb
00000050: 0aaa 0cbe 2e62 9c3d ab07 013c 78b7 bd3b
00000060: b6a6 aebc f946 16be b3d3 24be 8898 6b3d
00000070: 0830 63be 7b09 4dbd 57c8 273d c382 ab3d
00000080: 9397 5d3d 34e7 a8bd f696 a33c cdc3 283d
00000090: d672 23bc 35b6 54bd d666 793d 39fa 71bd
000000a0: 6dbb 96bd c128 b23d cc14 32be 1b9c 82bd
000000b0: 0365 bfba a1c7 113c f8db d4bc 2c10 873c
000000c0: 27cf bcbc ee5e 7fbd 93c8 9fbd b306 40bc
000000d0: 8f69 31be f5c2 94bc 0310 ca3d 28cd 1dbd
000000e0: cb3f 8c3d e17d d53d f9db 25be 52c6 32ba
000000f0: 9b71 08be 0232 403d a775 393d 54e1 e63b
00000100: 2a81 7e3e 30a8 993c 1f6b cdbd 5db6 28bd
00000110: 632e 50be bc58 10be b8b6 a6bd 4584 e33d
00000120: 0fe2 873d c2e8 21be 9330 9d3b 7b66 81bd
00000130: 9094 a4bd 820a 0cbe a8ea 01bd c774 06bd
00000140: 36e9 f2bd 8e59 efbc d79e 1fbd a2af 86bd
00000150: 05c0 623d 2029 2dbd 626c 21be 7e81 82bd
00000160: ddd5 02bd a157 62bd fe01 b8bd fbd8 d13d
00000170: d651 8abd 9358 8abd 1859 fa3d 5aa7 1cbe
00000180: 8bb8 8d3d 27da dfbd c7e1 5fbe 0a01 a63d
00000190: 7e71 d3bd 0c6e d4bb 8980 033c c843 12bc
000001a0: 11a0 f6bd 2f70 8e3d 412c cdbd 2bcb 573d
000001b0: b935 28be 9e2e dabb ef36 af3d b8c4 853d
000001c0: a634 77bd 6be3 23bd e8de 463d 1490 5d3d
000001d0: 5feb 4cbe 8c79 083c fcb0 93bd af1c cfbd
000001e0: edca 55bd 9bd7 f9bb 458e 1cbe 2f6f 833c
000001f0: 19f6 a5bc cc01 ff3d 9edb 3abb 1f8a 09be
00000200: f6af 463d 412b e7bd 840c 923d 8ee3 ff3c
00000210: c7dd d9bd a39d b63d 5be2 00bd 3a1e bb3d
00000220: 8bb4 d83d bda2 63bd b797 bebd 3eb3 7f3d
00000230: 4717 81bd 40db 9bbd 5e62 6ebd 31ad c9bd
00000240: c723 423e ea56 503d 9c7c b7bd c4e7 b33d
00000250: c729 7abe c442 eebd 4a39 f5bd ea95 643e
00000260: e6c4 b73c 8374 c0bc f64d acbc c893 d4bd
00000270: 8fe3 9bbd 2f1a c3bd 71d0 d23d cc0d d7bd
00000280: 3f1a abbd 8c89 32bd 14e1 9abd 7535 963d
00000290: d265 433d 77c8 d83c 3c86 b1bc 4395 763b
000002a0: 8415 873d 87c9 0a3c 602d 48bd 9fe1 8bbb
000002b0: bdaf ba3d 95a4 453d 423b ac3d 9d12 4abc
000002c0: 8272 5d3d 76e0 1abd e07a 2e3c 2ad4 873d
000002d0: 0602 7abc 9076 2c3d bfbe d13c 0a0e 13bd
000002e0: 9923 77bc 96a3 4abd 0118 443d 4996 2c3d
000002f0: b01a d93c be3f c3bd 6e13 ce3c 407c b03d
00000300: da4b f93c 1533 ad3c 7eb6 d2bd 39ab a4bc
00000310: 2f89 8dbd 7519 883c 19c2 3abd 4163 7bbd
00000320: 183b c9bd d040 9abd f3a4 8b3c 644c 20bd
00000330: 27ed c33a 97c1 733c ec9f 1fbb 48b4 bb3c
00000340: 2b03 8c3c 6ec8 15bd e665 933d 2258 143d
00000350: 3659 6fbd ebab 653d 185d 7b3d d536 0c3d
00000360: 8863 123e 64c6 613d 06c9 48bc de5c 08bd
00000370: b0dd 933c d976 753d ec51 923c 6ebc 113d
00000380: 47fe e3bd 7bc5 053d e11e 3d3d 3b67 2ebc
00000390: de8c 5d3d ded3 2fba 9781 b63b 3265 433d
000003a0: 75a6 8bbd f8f3 b1bb d913 70bd 21d6 abbc
000003b0: 785f 77bd 8bd2 4e3c 7515 3bbc 24a4 f9bc
000003c0: 4fe7 d7bd 60a8 80bd a30c ef3c 3360 81bc
000003d0: 56f4 933d 8866 a33c 4075 a3bd 62fc cf3c
000003e0: e9e4 5bbd 9896 dd3c 7e60 be3c 2960 cebd
000003f0: fe75 6d3d a6f1 acbd 6083 a93d 55c4 42be

lstm2.weight_ih_l0 f4 [400, 80]
-0.007289554 0.061429407 -0.023819294 -0.023661532 -0.0325537 -0.16739485 -0.080525115 -0.032851357
0.101139195 -0.28106385 -0.1835604 0.12563008 -0.0374003 0.09007683 0.09069182 -0.04338887
0.014524945 -0.06063251 -0.01653325 0.08535112 -0.28228194 0.057831302 -0.18978985 -0.047917474
-0.06331806 0.100624494 -0.09419011 0.08473981 0.041627012 0.07619695 0.12636101 0.022627115
-0.34300262 -0.0027395599 0.08739544 0.11866359 -0.17935576 -0.09720644 0.02717608 0.046157476
0.09623325 0.10748571 0.009647375 0.104230925 -0.047440387 0.024407724 -0.28617778 0.09994362
0.0036378126 -0.18705352 0.03938363 0.07272345 -0.014130464 0.09306663 0.029878207 -0.0020433923
-0.2147069 0.07041518 -0.14084375 0.014911593 -0.09795506 -0.06415892 -0.12419351 -0.07763226
0.11619586 0.11558392 -0.056871798 0.15380384 -0.123249374 -0.2882224 -0.19520223 -0.2967189
0.1415116 0.08500176 0.027613752 0.014981343 -0.06706978 -0.05584283 0.051875923 -0.12053096
-0.19932951 -0.014784973 -0.100859486 -0.09753201 0.079270616 -0.08822671 -0.1627278 -0.051629584
0.013023655 -0.3110433 -0.17577405 -0.03855222 -0.18113019 -0.093291834 0.073221005 -0.07199751
-0.055783182 -0.21440816 -0.20128334 -0.015088777 -0.18509093 0.078827046 -0.18050097 -0.076398544
-0.13235795 0.06286626 -0.061319713 -0.007010657 -0.03914485 -0.097986065 0.101909295 -0.023487914
-0.20898104 0.0721326 -0.057029895 0.06937206 -0.2184755 -0.0746045 -0.072470814 -0.06475755
-0.052691203 -0.039233755 -0.0069554336 -0.017494077 -0.10136972 -0.050260305 -0.26198703 0.043615345
0.07496655 -0.04694976 -0.111710705 0.06359069 0.05485319 -0.031598475 0.06445149 -0.038807794
-0.25133744 -0.021650927 -0.02270217 0.04496256 -0.1525081 -0.09879501 -0.18724231 -0.15141807
0.12176174 -0.019879192 -0.05244746 0.12912604 -0.14024478 -0.1640872 -0.2539479 -0.25307953
-0.020506747 0.070607506 0.0766467 0.02097138 -0.031123394 -0.027372114 -0.025290953 -0.2626833
-0.0940414 -0.14881907 -0.03956939 -0.11067001 -0.0140965525 -0.09949231 -0.11507401 0.008856833
-0.1678362 -0.081139654 0.008385548 -0.022907646 -0.015304569 -0.057205237 -0.04566505 -0.0979004
0.016416505 -0.054966606 0.014363361 -0.031502586 -0.015117477 -0.15539819 -0.054372147 -0.053586014
-0.05915233 0.0072587896 -0.14127058 0.013609276 0.052950125 -0.060162462 -0.031716105 -0.12549055
-0.10346101 -0.056839775 0.05656677 -0.07564298 -0.043312952 -0.09478062 0.024797961 0.011262288
-0.08571462 -0.050583623 -0.07174547 -0.113085456 -0.009709478 -0.13994214 -0.12688491 -0.0121267885
-0.15100972 0.04781377 -0.090359 -0.1194471 -0.0830439 -0.09620996 -0.075053364 -0.058796544
-0.1722075 -0.047359306 -0.039700653 -0.091573425 -0.07105917 -0.06574032 0.0010222096 -0.053937446
-0.03499907 -0.05740716 0.013756715 0.02968468 -0.15438376 -0.13991201 -0.00095337577 -0.07652889
0.027318839 -0.06526033 -0.042474825 -0.012977745 0.0034012732 -0.040686473 -0.099781066 -0.10940978
-0.04700186 0.107621044 -0.15466698 -0.079541795 0.069042794 -0.15440175 -0.0903123 -0.07934189
-0.002428385 -0.14362122 -0.084321596 0.039159853 -0.16375498 0.08608897 0.08001915 -0.06679754
00000000: 36dd eebb 679d 7b3d ae20 c3bc d4d5 c1bc
00000010: 0757 05bd 8e69 2bbe 5aea a4bd 258f 06bd
00000020: 1122 cf3d 9ae7 8fbe 42f7 3bbe 2ca5 003e
00000030: 0f31 19bd 337a b83d a2bc b93d 87b8 31bd
00000040: 09fa 6d3c cb59 78bd bd70 87bc 91cc ae3d
00000050: 4287 90be 84e0 6c3d 4558 42be 1d45 44bd
00000060: e6ac 81bd 3714 ce3d bfe6 c0bd 118c ad3d
00000070: 1681 2a3d 260d 9c3d c864 013e 805c b93c
00000080: 0a9e afbe 308a 33bb 61fc b23d e505 f33d
00000090: 09a9 37be 2c14 c7bd 5fa0 de3c 9f0f 3d3d
000000a0: f015 c53d 7821 dc3d 0610 1e3c 0677 d53d
000000b0: da50 42bd b5f2 c73c e585 92be 3eaf cc3d
000000c0: 5e68 6e3b f58a 3fbe bb50 213d 08f0 943d
000000d0: 7683 67bc b899 be3d 24c3 f43c 6fea 05bb
000000e0: 20dc 5bbe d535 903d 5839 10be c14f 743c
000000f0: aa9c c8bd c065 83bd 2b59 febd aafd 9ebd
00000100: 18f8 ed3d 43b7 ec3d 67f2 68bd c17e 1d3e
00000110: 2b6a fcbd e391 93be 18e3 47be 8aeb 97be
00000120: 6be8 103e 6715 ae3d 3c36 e23c 4f74 753c
00000130: e15b 89bd 74bb 64bd d97b 543d f0d8 f6bd
00000140: 091d 4cbe ac3c 72bc 6b8f cebd ddbe c7bd
00000150: a258 a23d 35b0 b4bd 1ea2 26be 8b79 53bd
00000160: 2b61 553c 1141 9fbe 1dfe 33be efe8 1dbd
00000170: 317a 39be ca0f bfbd e5f4 953d 6e73 93bd
00000180: e87c 64bd d08d 5bbe 381d 4ebe eb36 77bc
00000190: 7a88 3dbe 1370 a13d 3fd5 38be d776 9cbd
000001a0: d888 07be 07c0 803d 612a 7bbd a7b9 e5bb
000001b0: 5a56 20bd ebac c8bd d2b5 d03d ba69 c0bc
000001c0: 20ff 55be 42ba 933d 2e98 69bd f012 8e3d
000001d0: 0bb8 5fbe 3eca 98bd 946b 94bd 9b9f 84bd
000001e0: bbd2 57bd 93b3 20bd 68ea e3bb bd4f 8fbc
000001f0: ee9a cfbd c0dd 4dbd 2a23 86be 01a6 323d
00000200: 1088 993d 644e 40bd 95c8 e4bd d63b 823d
00000210: bdad 603d 676d 01bd 25ff 833d ecf4 1ebd
00000220: 4daf 80be 495d b1bc e7f9 b9bc a92a 383d
00000230: 152b 1cbe 0a55 cabd 73bc 3fbe 570d 1bbe
00000240: 385e f93d b0d9 a2bc 26d3 56bd 9e39 043e
00000250: 549c 0fbe 7a06 28be 7605 82be a493 81be
00000260: c4fd a7bc ab9a 903d f2f8 9c3d 2ccc ab3c
00000270: 7df6 febc 7c3b e0bc f92e cfbc 6d7e 86be
00000280: c798 c0bd 0764 18be 8313 22bd f5a6 e2bd
00000290: 3af5 66bc a0c2 cbbd ecab ebbd 401c 113c
000002a0: 41dd 2bbe 8c2c a6bd 8a63 093c d1a8 bbbc
000002b0: 04c0 7abc 0a50 6abd 470b 3bbd 0180 c8bd
000002c0: e87b 863c aa24 61bd 4d54 6b3c db08 01bd
000002d0: 4baf 77bc b420 1fbe 54b5 5ebd 027d 5bbd
000002e0: b749 72bd 24db ed3b 3ca9 10be 71f9 5e3c
000002f0: 3be2 583d ea6c 76bd bfe8 01bd 9880 00be
00000300: 5ee3 d3bd d3d0 68bd 8fb2 673d b5ea 9abd
00000310: ec68 31bd 571c c2bd 1825 cb3c 7685 383c
00000320: 268b afbd c630 4fbd 4aef 92bd 5999 e7bd
00000330: 8114 1fbc fe4c 0fbe 1eee 01be 70af 46bc
00000340: 4ba2 1abe 5fd8 433d 240e b9bd aea0 f4bd
00000350: ec12 aabd ba09 c5bd 94b5 99bd a5d4 70bd
00000360: 2a57 30be d5fb 41bd 279d 22bd d98a bbbd
00000370: 7887 91bd dca2 86bd aafb 853a 83ed 5cbd
00000380: 2f5b 0fbd c523 6bbd d863 613c 492d f33c
00000390: c716 1ebe 1845 0fbe f7eb 79ba 2ebb 9cbd
000003a0: c2cb df3c 35a7 85bd 15fa 2dbd 9ca0 54bc
000003b0: e5e7 5e3b dca6 26bd 045a ccbd 3c12 e0bd
000003c0: 0685 40bd 6c68 dc3d 0561 1ebe cfe6 a2bd
000003d0: 4f66 8d3d 7e1b 1ebe a8f5 b8bd 007e a2bd
000003e0: 8a25 1fbb 7111 13be cdb0 acbd 1566 203d
000003f0: 63af 27be 6a4f b03d 15e1 a33d 26cd 88bd

lstm2.weight_hh_l0 f4 [400, 100]
-0.07232455 -0.06302972 -0.07329006 0.12899403 -0.03894075 -0.0484275 0.02313262 -0.053757183
-0.034051668 0.036786698 -0.07483915 -0.058152646 0.038684428 0.028393665 0.1135264 -0.03487743
0.09503074 -0.11509593 -0.01152599 -0.14475997 0.059956133 -0.19313411 0.013354722 0.047567375
-0.004595167 -0.0675637 -0.020378992 0.04803352 -0.014169007 -0.078345016 -0.048479177 0.09450055
0.038850766 0.0997275 0.044338502 -0.056229096 0.048164386 -0.02315659 -0.07581261 -0.11263072
-0.12634434 0.005300746 0.08029003 -0.07851517 0.029109543 -0.08142068 -0.033520076 -0.119266726
-0.109818675 0.09793507 0.017049605 -0.10318064 0.12846525 -0.030020291 0.11318861 -0.038336746
0.021704847 0.031538952 -0.014550562 -0.054683536 -0.0243402 0.03885208 0.077014044 0.11036529
0.031236725 -0.019487046 -0.04413616 0.061533082 0.02489442 0.0061915913 -0.03211257 0.056213304
-0.031264886 -0.00010081366 0.081970885 -0.034359433 0.1078508 0.10772656 0.029138427 -0.06569869
-0.06774179 -0.08357861 -0.1727134 0.082426004 -0.017877951 -0.08795992 0.11164553 0.06159861
-0.020166447 0.02406616 -0.09520501 -0.06766271 -0.06844417 -0.14035042 0.045507375 -0.14346921
0.05582765 -0.12481976 0.00738529 0.10088447 0.078185566 -0.058175292 -0.008856516 0.10706781
-0.040931325 -0.08165586 -0.04134156 -0.098462544 0.11265098 -0.13316321 0.018875375 0.10753575
-0.07993135 -0.08151767 0.03992873 -0.011069256 0.09055643 -0.081464 -0.050842587 -0.08230234
-0.1832747 -0.12911813 0.08576501 0.019139104 0.14057828 -0.08043994 0.06726499 -0.0393004
-0.10488829 0.04350172 0.011333942 0.032643218 0.050487027 -0.025985029 -0.062232573 -0.114413485
-0.023922844 0.01103587 -0.14793098 -0.03138449 -0.14520358 0.00034150324 0.11929635 0.10828883
-0.11367165 -0.14228654 -0.032544527 0.012074258 -0.06542112 -0.024978993 -0.040990792 -0.17321268
-0.016694881 -0.031172497 0.11399038 -0.058924284 -0.0143680945 -0.03810225 -0.046464425 -0.038416803
0.004875412 -0.056377493 0.030285807 0.10274015 -0.0015827768 0.027522026 0.02669804 0.08096888
0.12600519 -0.105006 0.071028486 -0.006227678 0.065920375 0.02712349 0.04152466 0.13870227
-0.0053741997 0.13612112 -0.08646069 0.041143276 0.15061489 -0.060046062 -0.09412687 0.07648438
-0.05376555 -0.10871683 0.028702814 -0.021524511 0.06406576 -0.042844094 0.067055754 -0.05434859
0.035513327 -0.13232943 -0.0220685 -0.016288884 -0.07100159 -0.13058612 0.096220605 0.006040561
0.16013303 0.0674039 0.09068178 -0.0003832299 -0.12555428 -0.15895572 0.054195758 -0.021275513
0.12876938 0.06817105 0.02215377 0.0028036872 -0.06920438 -0.189449 0.17678079 8.2969855e-05
0.036321603 -0.1250496 -0.01149479 -0.13348037 -0.15761654 0.02307591 0.021258753 -0.11162457
0.14461823 -0.018818269 0.13752021 -0.026369601 -0.04567794 0.017126642 0.015419315 0.07753285
0.12829168 0.012665959 -0.121520944 -0.12733534 0.16304785 -0.06381267 -0.13549887 -0.121254906
-0.13292804 -0.06329087 0.013920801 0.077172756 -0.019337777 -0.053222593 -0.09898264 -0.043620694
0.0019944008 0.033631895 -0.042516384 -0.003372604 0.1196231 -0.04911724 -0.008477385 -0.111675754
00000000: e51e 94bd ba15 81bd 1919 96bd 0317 043e
00000010: 5680 1fbd ea5b 46bd 9f80 bd3c 7e30 5cbd
00000020: c379 0bbd a6ad 163d 4545 99bd 7831 6ebd
00000030: 9073 1e3d d599 e83c 8780 e83d a3db 0ebd
00000040: 7a9f c23d 6ab7 ebbd 82d7 3cbc f53b 14be
00000050: 9094 753d f3c4 45be c4cd 5a3c 02d6 423d
00000060: 0e93 96bb d65e 8abd d8f1 a6bc ccbe 443d
00000070: 1f25 68bc 5a73 a0bd 1a92 46bd 8189 c13d
00000080: fb21 1f3d ee3d cc3d 4a9c 353d 7b50 66bd
00000090: 0548 453d e4b2 bdbc a443 9bbd efaa e6bd
000000a0: 6960 01be e1b1 ad3b 196f a43d 90cc a0bd
000000b0: 2377 ee3c e3bf a6bd 594c 09bd 1d42 f4bd
000000c0: 9de8 e0bd 2f92 c83d 9dab 8b3c 5f50 d3bd
000000d0: 658c 033e 1ded f5bc 6ecf e73d fe06 1dbd
000000e0: 5dce b13c fd2e 013d 7b65 6ebc d8fb 5fbd
000000f0: 1965 c7bc 5c23 1f3d 8ab9 9d3d 3207 e23d
00000100: 29e4 ff3c 4ca3 9fbc 1ec8 34bd 1d0a 7c3d
00000110: 62ef cb3c d5e2 ca3b 7888 03bd ec3f 663d
00000120: 9c0f 00bd ec6b d3b8 5ae0 a73d 7abc 0cbd
00000130: e1e0 dc3d be9f dc3d b6b3 ee3c 098d 86bd
00000140: 35bc 8abd 432b abbd c8db 30be f7ce a83d
00000150: c874 92bc 5524 b4bd 69a6 e43d d34e 7c3d
00000160: 1b34 a5bc 6526 c53c d8fa c2bd bf92 8abd
00000170: 752c 8cbd 05b8 0fbe f165 3a3d 98e9 12be
00000180: 89ab 643d 81a1 ffbd 4e00 f23b 849c ce3d
00000190: c11f a03d 3749 6ebd ec1a 11bc 5e46 db3d
000001a0: 9ba7 27bd 303b a7bd c555 29bd bba6 c9bd
000001b0: 8fb5 e63d f05b 08be 88a0 9a3c b43b dc3d
000001c0: 0cb3 a3bd bcf2 a6bd 4f8c 233d d35b 35bc
000001d0: a675 b93d 99d6 a6bd 5140 50bd 218e a8bd
000001e0: 5dac 3bbe 8b37 04be 91a5 af3d 9cc9 9c3c
000001f0: c1f3 0f3e b2bd a4bd 3ac2 893d 75f9 20bd
00000200: accf d6bd dc2e 323d 00b2 393c e5b4 053d
00000210: 7ccb 4e3d 8ede d4bc 95e7 7ebd 9e51 eabd
00000220: d7f9 c3bc cbcf 343c 387b 17be 068d 00bd
00000230: 3fb0 14be ca0b b339 a551 f43d 89c6 dd3d
00000240: afcc e8bd 90b3 11be 694d 05bd 1cd3 453c
00000250: 82fb 85bd bfa0 ccbc f6e5 27bd aa5e 31be
00000260: b4c3 88bc 775d ffbc ca73 e93d 975a 71bd
00000270: 2868 6bbc 1b11 1cbd 7b51 3ebd f05a 1dbd
00000280: ecc1 9f3b 16ec 66bd f119 f83c 6e69 d23d
00000290: 2d75 cfba df75 e13c d9b5 da3c 03d3 a53d
000002a0: 8107 013e 630d d7bd 6277 913d 8d11 ccbb
000002b0: 4301 873d 1532 de3c c315 2a3d f807 0e3e
000002c0: 0e1a b0bb 5663 0b3e 4d12 b1bd da85 283d
000002d0: ca3a 1a3e dcf2 75bd 97c5 c0bd d8a3 9c3d
000002e0: 4439 5cbd eea6 debd 2a22 eb3c 2c54 b0bc
000002f0: e934 833d 4a7d 2fbd 8754 893d a19c 5ebd
00000300: 6c76 113d 5e81 07be 00c9 b4bc 4470 85bc
00000310: 4869 91bd 5eb8 05be 4f0f c53d e6ef c53b
00000320: eaf9 233e 0e0b 8a3d 5eb7 b93d 3fec c8b9
00000330: 4d91 00be 4ac5 22be 5ffc 5d3d fc49 aebc
00000340: 1fdc 033e 439d 8b3d d37b b53c 11be 373b
00000350: 07bb 8dbd ebfe 41be 0606 353e 1a00 ae38
00000360: f6c5 143d 010d 00be a554 3cbc 14af 08be
00000370: 3b66 21be b109 bd3c d626 ae3c 6c9b e4bd
00000380: cd16 143e c528 9abc 19d2 0c3e 1005 d8bc
00000390: cb18 3bbd 2c4d 8c3c 4ba1 7c3c 8bc9 9e3d
000003a0: e55e 033e e284 4f3c f9df f8bd 3264 02be
000003b0: 04f6 263e 38b0 82bd 37c0 0abe 7e54 f8bd
000003c0: 4a1e 08be a59e 81bd 1214 643c c00c 9e3d
000003d0: 426a 9ebc efff 59bd 69b7 cabd 9dab 32bd
000003e0: 7eb4 023b 99c1 093d a925 2ebd e806 5dbb
000003f0: f5fc f43d 292f 49bd bbe4 0abc 42b6 e4bd

lstm2.bias_ih_l0 f4 [400]
-0.011787835 -0.06906249 -0.0645693 -0.1020281 0.026493534 0.0340583 -0.09313174 0.0066262223
-0.08341747 -0.14876914 0.018019928 -0.09415428 -0.042367667 -0.06199473 -0.14403644 0.023925295
-0.07262271 -0.07041034 -0.0844371 -0.01184309 0.07059592 -0.031588636 -0.040617906 -0.034231674
0.02595822 -0.000856216 0.048156273 -0.11301406 -0.03258218 -0.044076946 -0.077833466 -0.09375776
-0.10803586 0.07946152 0.03505188 -0.039403524 0.0013521973 -0.06584396 0.0056182 -0.02427989
-0.05419917 -0.17486519 -0.1222289 -0.13770692 -0.060223904 0.020376423 -0.05088302 -0.018686334
0.08782371 0.016290031 -0.008561327 -0.029687414 0.019363444 -0.02515901 -0.10961513 -0.05664076
0.11738832 -0.09528913 0.08095067 -0.055155788 -0.09230317 -0.022520604 -0.07989091 0.00072326255
0.030036675 -0.20303039 -0.033286843 -0.14176838 -0.11658506 0.021754524 -0.12934114 -0.009123232
-0.020494068 -0.11062002 -0.018702198 -0.07175637 -0.09329032 -0.068400145 -0.037449628 0.051713735
-0.02702567 0.06286649 -0.052523177 -0.1282181 -0.13801715 0.011339579 -0.110973075 0.0030984974
-0.09179834 -0.050464585 -0.035086304 -0.076109745 0.010093941 0.08205602 -0.10282764 -0.11382685
0.07103847 -0.031853817 -0.11925366 -0.0650947 0.061729103 -0.16096447 -0.049978565 -0.08648773
-0.035559732 0.062130444 -0.036112815 0.082419656 -0.1254131 -0.04505761 0.041730832 0.0819196
0.121364556 0.14901523 0.055766195 -0.012288405 0.016666325 0.07097614 0.033494428 -0.011607999
0.13027851 0.032899883 -0.027663486 0.045650966 0.06298316 -0.00034731053 -0.032155138 -0.026639001
0.046119396 0.072831534 -0.11300208 0.040009886 0.029483387 -0.054806158 0.0981178 -0.08679731
0.08195525 -0.06290414 0.12073812 -0.009889411 0.0015078138 -0.16891207 -0.09484605 -0.10027885
-0.107278176 -0.0723421 0.038775153 -0.0146243395 0.115415335 -0.0001787025 -0.030103762 0.044254098
0.03157261 -0.072712414 0.010916071 0.024383083 -0.021865368 -0.0535123 -0.02175004 0.038794674
-0.09192658 -0.11076077 0.020008378 -0.10063919 -0.0010325736 -0.057504993 -0.07629091 0.014841328
0.02470613 0.06324459 -0.107420176 0.053512093 -0.09402694 -0.07466638 -0.1369882 -0.07040313
-0.035371006 -0.04966929 0.02258142 0.05021955 0.06245024 0.037620924 0.12283559 -0.14478768
0.034946766 0.07220167 0.06282175 0.08340395 0.010641345 -0.07930392 -0.13365921 -0.12518696
0.035215035 -0.08527442 0.030747117 -0.09127145 0.01056802 0.11829784 0.024492323 -0.14799815
-0.06028036 0.09567417 -0.035263974 0.08757292 0.069523096 0.102476984 -0.07020601 0.07658236
0.04502495 0.07742132 0.035932597 -0.09139829 0.1375112 0.13737178 0.015951501 -0.013819118
-0.010570845 -0.0035132295 -0.0921717 0.06511668 0.095015 -0.05123718 -0.043005317 -0.061779287
-0.03777628 0.08468643 -0.07986079 -0.044677526 0.065532245 -0.092844196 -0.010705123 0.03286688
0.051675305 -0.11195426 0.103098236 -0.02312011 0.010997787 -0.030399375 0.016747944 -0.002972422
0.1064132 -0.03706332 -0.043189105 -0.06379838 0.05905835 0.07050161 0.08781674 0.03256177
0.030047331 -0.046335492 0.02019922 0.06209643 0.010499523 0.029856766 0.045901287 0.12692316
00000000: c321 41bc a270 8dbd e93c 84bd 1cf4 d0bd
00000010: f808 d93c b780 0b3d dbbb bebd c820 d93b
00000020: c7d6 aabd f056 18be 879e 933c f6d3 c0bd
00000030: b889 2dbd 30ee 7dbd 4a7e 13be fbfe c33c
00000040: 37bb 94bd 4c33 90bd 5ced acbd 8509 42bc
00000050: 9894 903d 1663 01bd f65e 26bd 8336 0cbd
00000060: 55a6 d43c af73 60ba 833f 453d ea73 e7bd
00000070: e474 05bd 078a 34bd 2767 9fbd 1204 c0bd
00000080: e841 ddbd b9bc a23d 8f92 0f3d 9765 21bd
00000090: 363c b13a 33d9 86bd e118 b83b 9fe6 c6bc
000000a0: f3ff 5dbd dc0f 33be 2553 fabd 0b03 0dbe
000000b0: 57ad 76bd 75ec a63c b76a 50bd 1514 99bc
000000c0: ebdc b33d ac72 853c cf44 0cbc 0533 f3bc
000000d0: 16a0 9e3c 451a cebc e67d e0bd 2400 68bd
000000e0: 4a69 f03d f326 c3bd 77c9 a53d 09eb 61bd
000000f0: 7209 bdbd 217d b8bc d89d a3bd 5499 3d3a
00000100: 790f f63c 33e7 4fbe c957 08bd bb2b 11be
00000110: 26c4 eebd 8b36 b23c 0172 04be 9c79 15bc
00000120: 2de3 a7bc c08c e2bd 5a35 99bc 01f5 92bd
00000130: ff0e bfbd 6015 8cbd c864 19bd c8d1 533d
00000140: f064 ddbc 25c0 803d 8b22 57bd 9b4b 03be
00000150: 5e54 0dbe a4c9 393c da45 e3bd 2910 4b3b
00000160: c500 bcbd f4b3 4ebd a8b6 0fbd 6ddf 9bbd
00000170: 0f61 253c fd0c a83d 4c97 d2bd 0d1e e9bd
00000180: 9e7c 913d 2679 02bd 433b f4bd 5f50 85bd
00000190: a8d7 7c3d dfd3 24be 53b6 4cbd 7b20 b1bd
000001a0: 15a7 11bd 7e7c 7e3d 08eb 13bd a3cb a83d
000001b0: 4b6c 00be 548e 38bd f3ed 2a3d 77c5 a73d
000001c0: fb8d f83d 7397 183e 186b 643d 4e55 49bc
000001d0: d187 883c f05b 913d 7431 093d 7a2f 3ebc
000001e0: bb67 053e 07c2 063d 899e e2bc 82fc 3a3d
000001f0: 51fd 803d 3b17 b6b9 1bb5 03bd 093a dabc
00000200: b1e7 3c3d b328 953d a26d e7bd 68e1 233d
00000210: 2587 f13c 6c7c 60bd fcf1 c83d cac2 b1bd
00000220: 27d8 a73d e3d3 80bd 8c45 f73d 3207 22bc
00000230: d6a1 c53a 49f7 2cbe a53e c2bd ff5e cdbd
00000240: a9b4 dbbd 1828 94bd b2d2 1e3d ed9a 6fbc
00000250: e05e ec3d 1662 3bb9 2a9c f6bc c943 353d
00000260: 4852 013d 3fea 94bd 52d9 323c 08bf c73c
00000270: 001f b3bc b72f 5bbd 242d b2bc 2ae7 1e3d
00000280: 0144 bcbd 8bd6 e2bd 9ce8 a33c eb1b cebd
00000290: 6c57 87ba 5b8a 6bbd 693e 9cbd 0b29 733c
000002a0: 8364 ca3c 6186 813d 1cff dbbd 7f2f 5b3d
000002b0: 3291 c0bd b0ea 98bd a246 0cbe 842f 90bd
000002c0: 30e1 10bd 0772 4bbd acfc b83c 04b3 4d3d
000002d0: d3cb 7f3d 6618 1a3d 3a91 fb3d 3943 14be
000002e0: 5724 0f3d 78de 933d b1a8 803d b1cf aa3d
000002f0: 0959 2e3c 186a a2bd f6dd 08be 0331 00be
00000300: a43d 103d 5ba4 aebd 61e1 fb3c 87ec babd
00000310: 7d25 2d3c 2346 f23d 20a4 c83c d48c 17be
00000320: 8ae8 76bd d2f0 c33d f570 10bd 6e59 b33d
00000330: 2062 8e3d 74df d13d 2bc8 8fbd 36d7 9c3d
00000340: 156c 383d 128f 9e3d 0f2e 133d 072f bbbd
00000350: bccf 0c3e 30ab 0c3e b9ac 823c 9569 62bc
00000360: 5631 2dbc 363e 66bb 84c4 bcbd e55b 853d
00000370: 3997 c23d 14de 51bd 5826 30bd 470c 7dbd
00000380: 4dbb 1abd 1470 ad3d 0e8e a3bd c8ff 36bd
00000390: c535 863d 1925 bebd 8a64 2fbc 6c9f 063d
000003a0: 7ca9 533d 4648 e5bd 2b25 d33d 6366 bdbc
000003b0: 1030 343c 1c08 f9bc fc32 893c f7cc 42bb
000003c0: 2aef d93d b5cf 17bd 0fe7 30bd baa8 82bd
000003d0: 2be7 713d 2663 903d 43d9 b33d 7e5f 053d
000003e0: d225 f63c 49ca 3dbd d678 a53c d458 7e3d
000003f0: 3106 2c3c 2d96 f43c fd02 3c3d 25f8 013e
