models/model3.pth (torch, 249962 bytes, 10 tensors)

conv1.weight f4 [6, 3, 5, 5]
0.08539168 -0.03679628 0.049428966 0.0049650124 0.12692648 0.05151764 0.15445498 -0.08266604
0.017867712 0.034808442 -0.07599373 0.07680061 -0.09754659 -0.014150595 -0.12705494 -0.008755202
0.05008261 -0.025054762 -0.13705988 -0.09371837 0.062004056 0.07147975 -0.12666972 -0.05528101
-0.1720323 0.13331819 0.11903912 0.008394806 -0.06037893 -0.034446456 0.04034949 0.12436666
-0.055099472 0.13304916 0.07527994 0.108619936 0.0647244 0.009613902 0.10075544 -0.03701261
-0.11761831 -0.05877766 -0.09535819 -0.07935573 -0.1732829 0.080746956 0.021228222 0.008885668
-0.058432255 -0.14149123 0.16988507 0.03882268 0.09200519 0.11471294 0.013513978 0.064277
0.025546974 0.0051551177 0.0016721481 0.043056358 0.02250826 -0.047018696 -0.11205484 0.07814442
0.065154746 0.056299757 -0.11222056 -0.14237408 -0.11365655 -0.10216242 0.06160994 0.09085205
0.05727288 -0.014718095 -0.110111676 0.15659727 0.13846841 0.011538206 0.09940493 -0.024906645
-0.06251436 0.11989731 0.20612451 -0.030670637 0.042685937 -0.03015444 0.15072769 0.077816576
0.068099 -0.067393675 -0.07388162 0.061713338 0.005776569 0.13505879 0.041683584 0.079927854
0.002296145 0.034347136 -0.077230215 0.046462085 -0.0029397842 -0.031040989 0.16265386 0.11012788
0.104431234 0.025273358 0.17522071 0.12940982 0.017919859 -0.10638888 0.06265673 0.036365062
0.013776723 0.05596268 -0.06289298 -0.095505066 0.12002461 0.02488137 0.013172075 0.09682217
-0.011793202 0.03956205 -0.007340452 -0.030331409 -0.13728355 0.116206996 -0.007558485 0.12679583
-0.07244707 0.018926667 -0.11117097 -0.027045358 0.111367844 -0.0053342385 -0.14520124 -0.13089615
-0.016503546 0.062219232 -0.06453049 -0.1543771 -0.14112145 -0.002932384 0.07001535 -0.056515988
-0.10008701 0.017193621 0.031129593 0.033774633 0.046199813 0.038952395 -0.17984708 -0.06533045
-0.09183375 -0.042134732 -0.06975049 -0.15672736 -0.029476695 -0.09522969 -0.036706626 -0.14353967
0.009195507 -0.10594366 0.018695375 -0.037662864 -0.0107325055 0.14234217 0.122028925 -0.007500056
-0.07488988 -0.06712749 -0.012566244 -0.020372383 0.102857284 0.028090553 -0.052530106 0.03801236
-0.12047444 -0.14221247 -0.104018115 0.044009972 -0.03109176 -0.03322778 -0.08329312 0.038877334
0.062490687 0.114693515 0.063851446 0.010117476 0.093313366 0.062267482 0.1555231 -0.00012312876
0.057664108 0.017564474 -0.019607438 0.12287903 0.042189013 0.039594814 0.0011547408 -0.025082398
0.037949733 -0.0702778 -0.10535595 0.0012245453 -0.008491042 0.002026784 -0.044777215 -0.005155914
-0.09991158 -0.046782214 0.12020361 0.15662391 0.14223604 -0.033532456 -0.07290792 -0.016996507
-0.041046742 0.11386314 0.015893193 0.088255875 0.1462649 0.041097302 0.09244972 0.09651263
0.06477197 0.054778185 0.05441135 -0.070010886 0.09518922 -0.040577136 0.09005523 0.008641253
0.022208164 0.08262476 -0.022078851 -0.045970503 0.017526735 0.10655573 -0.05567413 0.056224562
0.10303406 0.12782775 0.1015947 0.16552782 -0.035319563 0.0100095 -0.008716389 0.15804794
0.048951875 2.8451246e-05 -0.067577764 -0.082333066 0.10476554 0.14544372 -0.053845737 -0.012183683
00000000: d5e1 ae3d b2b7 16bd 0776 4a3d 8bb1 a23b
00000010: 04f9 013e 2904 533d 7229 1e3e d04c a9bd
00000020: 4f5f 923c 4c93 0e3d 9aa2 9bbd a349 9d3d
00000030: 82c6 c7bd e6d7 67bc b11a 02be fb71 0fbc
00000040: 6c23 4d3d a53f cdbc 6d59 0cbe 6bef bfbd
00000050: f7f7 7d3d fa63 923d b5b5 01be 576e 62bd
00000060: 3c29 30be 9084 083e c8ca f33d 5e8a 093c
00000070: e64f 77bd ba17 0dbd 8245 253d f3b3 fe3d
00000080: fcaf 61bd 0a3e 083e 5f2c 9a3d 2174 de3d
00000090: 3a8e 843d a183 1d3c de58 ce3d 899a 17bd
000000a0: dee1 f0bd d8c0 70bd 284b c3bd 4285 a2bd
000000b0: 1371 31be a95e a53d cfe6 ad3c 3195 113c
000000c0: a956 6fbd 14e3 10be 5af6 2d3e 8804 1f3d
000000d0: 386d bc3d 9eee ea3d bb69 5d3c a9a3 833d
000000e0: e347 d13c 43ec a83b fb2b db3a dd5b 303d
000000f0: 3e63 b83c ad96 40bd 027d e5bd 2f0a a03d
00000100: da6f 853d 939a 663d e5d3 e5bd 83ca 11be
00000110: c4c4 e8bd 883a d1bd b45a 7c3d a410 ba3d
00000120: f896 6a3d 2a24 71bc 3b82 e1bd 095b 203e
00000130: aaca 0d3e be0a 3d3c d094 cb3d 0509 ccbc
00000140: 8707 80bd b98c f53d 4e12 533e fd40 fbbc
00000150: 73d7 2e3d 7206 f7bc 5c58 1a3e 4c5e 9f3d
00000160: 7d77 8b3d b205 8abd 3f4f 97bd 20c7 7c3d
00000170: 5f49 bd3b da4c 0a3e 68bc 2a3d 37b1 a33d
00000180: ec7a 163b 95af 0c3d e02a 9ebd 074f 3e3d
00000190: 65a9 40bb ac49 febc bc8e 263e ba8a e13d
000001a0: 0be0 d53d 130a cf3c 0f6d 333e 0284 043e
000001b0: abcc 923c 6ae2 d9bd 2c52 803d 88f3 143d
000001c0: c4b7 613c 2039 653d 09ce 80bd 2998 c3bd
000001d0: 76cf f53d 04d4 cb3c b0cf 573c b44a c63d
000001e0: 4638 41bc d10b 223d 2d88 f0bb 9379 f8bc
000001f0: 0f94 0cbe effd ed3d 2bad f7bb c4d6 013e
00000200: 215f 94bd 190c 9b3c 9bad e3bd 3a8e ddbc
00000210: d314 e43d d6ca aebb a2af 14be a409 06be
00000220: 7232 87bc 98d9 7e3d 9028 84bd 0815 1ebe
00000230: 2482 10be 3d2d 40bb 3564 8f3d 4f7d 67bd
00000240: 6bfa ccbd a3d9 8c3c 7d03 ff3c 4557 0a3d
00000250: 043c 3d3d 8c8c 1f3d d529 38be f9cb 85bd
00000260: 5513 bcbd 7895 2cbd 58d9 8ebd 237d 20be
00000270: 1c79 f1bc c907 c3bd b059 16bd 10fc 12be
00000280: c0a8 163c fdf8 d8bd 0b27 993c 6044 1abd
00000290: 64d7 2fbc 25c2 113e 4dea f93d 08c3 f5bb
000002a0: de5f 99bd 237a 89bd a6e2 4dbc fce3 a6bc
000002b0: d7a6 d23d 291e e63c cf29 57bd d9b2 1b3d
000002c0: 4ebb f6bd 25a0 11be 7307 d5bd cd43 343d
000002d0: 26b4 febc da19 08bd 9595 aabd d73d 1f3d
000002e0: 3cf6 7f3d 6fe4 ea3d 8cc4 823d c5c3 253c
000002f0: 141b bf3d 300c 7f3d 7341 1f3e 201c 01b9
00000300: 3331 6c3d 5fe3 8f3c c79f a0bc 00a8 fb3d
00000310: 63ce 2c3d 2c2e 223d ac5a 973a 9a79 cdbc
00000320: 2e71 1b3d cfed 8fbd dcc4 d7bd ec80 a03a
00000330: 031e 0bbc cbd3 043b 5068 37bd f1f2 a8bb
00000340: 719e ccbd b59e 3fbd 4f2d f63d 0562 203e
00000350: 53a6 113e 5459 09bd bf50 95bd 423c 8bbc
00000360: a120 28bd 1431 e93d 7132 823c 7fbf b43d
00000370: 77c6 153e a555 283d 4756 bd3d 6aa8 c53d
00000380: 2ba7 843d 175f 603d 70de 5e3d de61 8fbd
00000390: 91f2 c23d 3634 26bd e06e b83d 0b94 0d3c
000003a0: e5ed b53c 2c37 a93d b5de b4bc 914b 3cbd
000003b0: 3a94 8f3c e439 da3d 8e0a 64bd ba4b 663d
000003c0: 8503 d33d 47e5 023e e210 d03d 2080 293e
000003d0: 3fab 10bd e3fe 233c 2fcf 0ebc 52d7 213e
000003e0: c381 483d 96aa ee37 3666 8abd 3d9e a8bd
000003f0: 518f d63d 33ef 143e 598d 5cbd 129e 47bc

conv1.bias f4 [6]
-0.11972827 -0.12952483 0.12264042 -0.011136392 -0.07590913 -0.019536754
00000000: 1834 f5bd 28a2 04be e72a fb3d 6a75 36bc
00000010: 3f76 9bbd 8b0b a0bc

conv2.weight f4 [16, 6, 5, 5]
0.10721042 0.036839925 -0.02938256 -0.021329783 0.06894077 0.06481187 -0.04198471 -0.040059116
0.0011559832 0.06662291 0.121154875 0.0069538667 0.1025455 0.11030278 0.074566916 0.081583545
-0.038503215 0.08688846 -0.0554057 -0.030644117 -0.01913367 0.024084082 -0.03855426 0.037740048
0.027478712 0.022689523 0.022548638 -0.062105328 0.001168943 -0.01794172 -0.06122729 -0.03123964
0.05328583 -0.05731326 -0.09072347 0.048054148 -0.06745235 0.057413388 -0.08180643 -0.055382986
0.06174363 -0.082613274 -0.048407357 -0.03660395 -0.1079411 -0.059218932 -0.029511917 -0.014825928
0.019803358 -0.06368406 0.026054053 0.11973643 0.040428694 0.07492624 0.037752695 0.10673339
0.13788836 0.02400536 -0.0043939073 0.11550299 0.07230427 0.12794714 0.1324945 0.023332927
0.073597774 0.060518246 0.08077196 0.16152377 0.113983326 0.07955883 0.07580339 0.19055831
0.062268984 0.107625395 0.045788135 0.0789164 0.009821284 0.08670655 0.024557112 0.07094653
0.041876025 0.06833889 -0.016228462 -0.060215067 0.05991169 -0.026945874 -0.0024010453 -0.008737162
-0.055515505 -0.04326945 -0.04802772 0.024573186 -0.03444455 -0.00030339725 0.036175862 -0.062433384
-0.023699692 -0.028857112 0.028751394 0.042840935 -0.029469894 -0.083392195 -0.09851272 -0.059080787
-0.096389495 0.0318871 -0.071052425 -0.023091512 0.017362816 -0.06914854 -0.01323265 -0.032326214
-0.030370533 0.030353041 -0.10519755 -0.118059345 -0.026718847 -0.05973227 -0.09098613 -0.021972053
-0.119605996 0.0185287 -0.042543374 -0.110070616 -0.07954586 -0.41993368 -0.17422682 -0.21767476
-0.16291235 -0.14950943 -0.33439475 -0.2043253 -0.26366478 -0.22299719 -0.10105135 -0.13941585
-0.012682423 -0.045651864 -0.0024886904 -0.107604384 -0.21145578 -0.09487132 -0.065931894 -0.05900685
-0.117205694 -0.26985288 -0.21012327 -0.111208536 -0.114338644 -0.060777597 -0.14775853 -0.0190812
-0.042924985 -0.08423374 -0.058187477 -0.061363626 -0.10945074 0.045431558 0.088253126 0.055412523
-0.066933826 0.0490276 0.07406282 0.118167356 0.08940886 -0.12582706 -0.052348383 0.015128802
0.06823408 0.14304493 -0.11779828 0.043937843 0.05215607 0.15698083 0.049897593 -0.08818976
-0.044566594 -0.06447894 -0.04280844 0.071239956 -0.04736284 0.059319716 0.07471063 -0.015046497
0.028079903 0.03880318 0.022899034 0.10016869 0.049255483 0.02945637 -0.026584698 -0.035786014
-0.012912076 -0.0089413775 0.054283068 -0.10768995 -0.0064922576 -0.031244457 0.008147504 0.08870283
0.106933236 0.13164751 0.055633698 0.032230616 0.1038795 0.054024953 -0.027356785 0.08218128
0.007514959 0.0790043 0.064667426 -0.0214923 0.0055024307 0.041964725 0.12716568 0.05939405
-0.00038148215 -0.016143648 -0.07397754 0.07020889 -0.031283766 0.094443865 -0.082398534 0.050608076
-0.105338156 0.0014210249 0.014127095 0.039814174 0.03294185 0.10032157 -0.08461721 0.004738832
-0.051877916 0.07904059 -0.025215397 -0.017596057 -0.034779157 0.059025038 -0.011017384 0.08605186
-0.117296845 -0.10667436 0.055797156 0.065075345 0.02503043 -0.09621074 -0.08363326 -0.04254186
0.017346732 -0.027837709 -0.09362684 0.08017369 0.01663196 0.057311278 0.058152955 0.006308193
00000000: 2391 db3d 76e5 163d b2b3 f0bc ccbb aebc
00000010: d230 8d3d 16bc 843d 29f8 2bbd 0715 24bd
00000020: 5c84 973a 9871 883d 0c20 f83d 43dd e33b
00000030: 6003 d23d 6de6 e13d 8ab6 983d 4615 a73d
00000040: 8cb5 1dbd 94f2 b13d 16f1 62bd 5f09 fbbc
00000050: 37be 9cbc fb4b c53c 12eb 1dbd 4f95 1a3d
00000060: 091b e13c 61df b93c ecb7 b83c 2862 7ebd
00000070: 3837 993a 84fa 92bc 78c9 7abd 46ea ffbc
00000080: 3e42 5a3d 4fc1 6abd 3acd b9bd 6dd4 443d
00000090: 7524 8abd 4d2a 6b3d 218a a7bd 45d9 62bd
000000a0: e3e6 7c3d 2631 a9bd cb46 46bd 06ee 15bd
000000b0: 3910 ddbd 8d8f 72bd fac2 f1bc 73e8 72bc
000000c0: a73a a23c ca6c 82bd 4f6f d53c 6038 f53d
000000d0: 8f98 253d ee72 993d 92a2 1a3d 0997 da3d
000000e0: 9b32 0d3e e4a6 c43c c4fa 8fbb d58c ec3d
000000f0: 4314 943d 9304 033e a3ac 073e b224 bf3c
00000100: 6eba 963d fbe1 773d c56b a53d 7d66 253e
00000110: 1770 e93d bdef a23d cf3e 9b3d b821 433e
00000120: c30d 7f3d b46a dc3d 578c 3b3d ec9e a13d
00000130: 73e9 203c 3493 b13d ff2b c93c 6a4c 913d
00000140: 3286 2b3d 43f5 8b3d 8df1 84bc 13a4 76bd
00000150: f665 753d 98bd dcbc db5a 1dbb 5026 0fbc
00000160: 3a64 63bd 4f3b 31bd b7b8 44bd b54d c93c
00000170: ba15 0dbd 4a11 9fb9 242d 143d 26ba 7fbd
00000180: db25 c2bc c065 ecbc 0b88 eb3c fa79 2f3d
00000190: d96a f1bc 87c9 aabd 09c1 c9bd b2fe 71bd
000001a0: db67 c5bd 0c9c 023d ef83 91bd 692a bdbc
000001b0: 773c 8e3c c09d 8dbd c2cd 58bc 7e68 04bd
000001c0: a0cb f8bc f1a6 f83c d071 d7bd 19c9 f1bd
000001d0: 7ce1 dabc d3a9 74bd f056 babd bcfe b3bc
000001e0: fdf3 f4bd 80c9 973c f641 2ebd b46c e1bd
000001f0: f1e8 a2bd 8c01 d7be 8468 32be 22e6 5ebe
00000200: 7fd2 26be 0019 19be ca35 abbe a73a 51be
00000210: 12ff 86be 6059 64be 03f4 cebd 07c3 0ebe
00000220: f0c9 4fbc 73fd 3abd 4c19 23bb b05f dcbd
00000230: dd87 58be e54b c2bd 4d07 87bd 2bb1 71bd
00000240: 8a09 f0bd 282a 8abe 8e2a 57be 4dc1 e3bd
00000250: 612a eabd eef1 78bd 034e 17be 2d50 9cbc
00000260: 1cd2 2fbd bd82 acbd fe55 6ebd 6d58 7bbd
00000270: b627 e0bd 7116 3a3d 0ebe b43d 3ef8 623d
00000280: 9a14 89bd 2ad1 483d 3fae 973d ba01 f23d
00000290: fe1b b73d cfd8 00be 426b 56bd cbde 773c
000002a0: 4fbe 8b3d 5f7a 123e 3a40 f1bd 2bf8 333d
000002b0: 9aa1 553d 95bf 203e 6b61 4c3d d59c b4bd
000002c0: 768b 36bd 890d 84bd e757 2fbd 41e6 913d
000002d0: 8aff 41bd 3bf9 723d e301 993d 9585 76bc
000002e0: d307 e63c 15f0 1e3d c196 bb3c 3e25 cd3d
000002f0: 1ec0 493d 7c4e f13c 27c8 d9bc 5b94 12bd
00000300: 2c8d 53bc db7e 12bc ec57 5e3d 8c8c dcbd
00000310: 01bd d4bb 60f4 ffbc 1c7d 053c d4a9 b53d
00000320: d0ff da3d 9bce 063e 29e0 633d 4004 043d
00000330: c6be d43d 4549 5d3d 561b e0bc a94e a83d
00000340: 0c40 f63b 02cd a13d 5b70 843d 9f10 b0bc
00000350: bc4d b43b 34e3 2b3d b837 023e 2d47 733d
00000360: ab01 c8b9 af3f 84bc 8981 97bd aec9 8f3d
00000370: 6823 00bd c96b c13d 90c0 a8bd 6a4a 4f3d
00000380: 88bb d7bd af41 ba3a 5575 673c 3014 233d
00000390: 09ee 063d 6575 cd3d ca4b adbd 3448 9b3b
000003a0: f07d 54bd 08e0 a13d 8590 cebc 9b25 90bc
000003b0: 9774 0ebd 3dc4 713d 4282 34bc f53b b03d
000003c0: 5439 f0bd 1678 dabd 8f8b 643d 3946 853d
000003d0: 9e0c cd3c 230a c5bd ea47 abbd 6040 2ebd
000003e0: bc1a 8e3c e80b e4bc 6ebf bfbd 1b32 a43d
000003f0: c03f 883c 3bbf 6a3d cb31 6e3d f5b4 ce3b

conv2.bias f4 [16]
0.18828921 0.031046083 -0.15187886 -0.1857806 -0.11752654 -0.109692894 -0.10081373 -0.018214637
-0.15327206 0.1826085 0.14705923 0.23484065 -0.18213399 -0.08949293 -0.09857983 -0.06590665
00000000: e3ce 403e 5b54 fe3c 2286 1bbe 453d 3ebe
00000010: c1b1 f0bd aba6 e0bd 6e77 cebd dd36 95bc
00000020: 5af3 1cbe b9fd 3a3e b296 163e 117a 703e
00000030: 5581 3abe 1248 b7bd 39e4 c9bd 11fa 86bd

conv3.weight f4 [120, 16, 5, 5]
0.013883395 0.05485807 0.0018102323 0.0058278465 0.04643484 0.0166044 0.089238025 0.020689134
0.003015172 0.074104846 0.05297741 0.06355145 0.0021490518 -0.016802678 0.08518097 0.07738311
0.0794727 0.052020695 0.013369452 -0.00064965745 0.04456413 0.10784232 0.025179049 0.043423858
0.02340141 -0.095227666 -0.07576616 0.054688938 0.009877615 0.06014837 -0.12154311 -0.017312137
0.08456203 0.03618366 0.02140663 -0.11394392 -0.012887724 0.08694693 -0.047223862 0.00061832985
-0.107977845 0.00024477908 0.12840472 -0.056740087 -0.03597774 -0.036504485 -0.029038763 -0.006386075
0.060764514 0.030765316 -0.011427021 0.015637381 0.036838397 -0.026977764 -0.019199466 0.0007864906
0.043823402 0.048512407 -0.025861097 -0.007881018 -0.02867713 -0.0118296165 -0.0050531696 0.01941418
0.021794802 0.032897346 -0.03733843 0.028281085 -0.03265241 0.06704169 -0.046185408 0.042610276
0.026689896 -0.022206029 0.0023543907 -2.4391673e-05 0.047547095 0.013590614 0.041945558 0.08077448
0.043622576 0.05082456 -0.02275949 -0.021955946 0.03129524 -0.008861514 0.032814577 0.04359962
-0.019269377 0.017844444 -0.010797206 0.053290967 0.025565458 -0.006125768 0.061529253 -0.037028555
-0.005919912 0.048148736 -0.020963067 0.07364494 0.05281507 -0.058816973 -0.047180656 -0.01261056
-0.086615786 0.09531846 -0.024243446 -0.13785385 -0.042611737 -0.020388506 0.08659616 -0.06422057
-0.06329969 0.015847996 -0.059684772 0.090745084 -0.0770644 -0.05208765 -0.053231314 -0.019906472
0.060852025 -0.049054936 -0.07341548 -0.05567843 -0.05122151 -0.01451091 0.03447056 0.048979476
-0.019427573 0.019676702 0.045921467 0.02238902 -0.005888666 -0.004322842 0.059241377 -0.011794979
0.010770298 0.029759087 -0.03571939 0.056526843 0.012796084 0.0076452796 0.04479315 0.022833731
0.06680414 0.016691519 0.013478416 0.053341255 -0.01638282 0.0009884314 -0.22711559 -0.10731255
-0.04147931 -0.07699415 -0.3209584 -0.11859817 -0.17330971 0.015248353 -0.08681825 -0.27948454
-0.12943141 -0.078521006 -0.029031176 -0.059844613 -0.13759707 -0.14912084 -0.009268943 0.032682486
-0.14851452 -0.122315586 -0.25857565 -0.083061524 0.011131411 -0.13220821 -0.11441014 -0.18789317
-0.15279244 -0.25892025 -0.17035158 -0.09512149 -0.2097359 -0.07883261 -0.2527603 -0.1514674
-0.042785224 -0.16767779 -0.16058372 -0.2909709 -0.04011079 -0.06598228 -0.16582526 -0.15325467
-0.11905733 -0.13339214 -0.009257378 -0.17270298 -0.18544374 -0.054926906 -0.096690476 -0.1946469
-0.054593623 -0.07085368 -0.10402521 -0.016671233 -0.0663171 0.059492875 -0.097863495 -0.03395389
-0.026917621 -0.033547334 0.08707467 -0.04063769 -0.049925815 -0.08884699 -0.06585393 0.01662924
-0.020684477 -0.033999655 -0.0060361787 0.05292011 0.08728022 -0.067980394 -0.047606193 -0.061889328
-0.1139721 -0.028284721 -0.012828788 0.0723617 0.024285577 0.054251704 0.03704615 0.06507385
-0.02903836 0.043372218 0.05908502 0.0010130298 0.05521132 -0.0009786846 0.0024032763 0.071512654
0.0330164 0.017688172 -0.003753694 -0.012924386 0.019667143 -0.012645243 -0.007597009 0.039199885
0.02973614 0.005188008 -0.06235924 -0.0153902825 -0.009606877 -0.030274792 -0.026167998 -0.07903617
00000000: 2e77 633c dbb2 603d 5145 ed3a 85f7 be3b
00000010: 7532 3e3d f305 883c 6dc2 b63d 427c a93c
00000020: 319a 453b 48c4 973d d7fe 583d 4327 823d
00000030: 1bd7 0c3b c5a5 89bc 5c73 ae3d 097b 9e3d
00000040: 95c2 a23d a713 553d 8c0b 5b3c c64d 2aba
00000050: e188 363d 6fdc dc3d 4b44 ce3c 37dd 313d
00000060: 50b4 bf3c b906 c3bd 4a2b 9bbd 8201 603d
00000070: b8d5 213c 235e 763d 98eb f8bd 2fd2 8dbc
00000080: dc2e ad3d 5135 143d f55c af3c 6e5b e9bd
00000090: 0827 53bc 3b11 b23d cf6d 41bd 6a17 223a
000000a0: 7d23 ddbd b155 8039 877c 033e 4b68 68bd
000000b0: 655d 13bd ba85 15bd b3e2 edbc 4842 d1bb
000000c0: 36e4 783d 8b07 fc3c 6638 3bbc f719 803c
000000d0: dce3 163d 7900 ddbc 3348 9dbc 7e2c 4e3a
000000e0: 2b80 333d f2b4 463d a7da d3bc 631f 01bc
000000f0: 4dec eabc 02d1 41bc 0f95 a5bb 7d0a 9f3c
00000100: 038b b23c 5ebf 063d 2ef0 18bd bcad e73c
00000110: 89be 05bd 274d 893d e92c 3dbd 1d88 2e3d
00000120: c5a4 da3c 6be9 b5bc 1f4c 1a3b b89c ccb7
00000130: bec0 423d 2bab 5e3c 1bcf 2b3d 176d a53d
00000140: 96ad 323d 6a2d 503d 1c72 babc f5dc b3bc
00000150: 702f 003d e22f 11bc 9468 063d 8495 323d
00000160: d0da 9dbc 832e 923c c4e6 30bc a147 5a3d
00000170: a76e d13c abba c8bb 1906 7c3d 41ab 17bd
00000180: d2fb c1bb 9c37 453d bdba abbc 29d3 963d
00000190: 9d54 583d 11ea 70bd 8140 41bd 869c 4ebc
000001a0: 9e63 b1bd 5336 c33d 319a c6bc 8f29 0dbe
000001b0: a589 2ebd cc05 a7bc 5459 b13d 1386 83bd
000001c0: 45a3 81bd a8d3 813c 0578 74bd 8fd8 b93d
000001d0: f1d3 9dbd dc59 55bd 1409 5abd e612 a3bc
000001e0: f93f 793d d4ed 48bd db5a 96bd 110f 64bd
000001f0: a5cd 51bd 2bbf 6dbc 0031 0d3d b49e 483d
00000200: 9326 9fbc 0931 a13c 2618 3c3d 2e69 b73c
00000210: b6f5 c0bb a1a6 8dbb 16a7 723d ba3f 41bc
00000220: e775 303c 54c9 f33c 7f4e 12bd b188 673d
00000230: aba6 513c 4185 fa3b 0679 373d ce0d bb3c
00000240: 9cd0 883d a7bc 883c 93d4 5c3c 5c7c 5a3d
00000250: 4435 86bc 418e 813a fd90 68be afc6 dbbd
00000260: 35e6 29bd 1caf 9dbd a954 a4be 99e3 f2bd
00000270: 1a78 31be 3ad4 793c c4cd b1bd 9918 8fbe
00000280: ab89 04be 9fcf a0bd cad2 edbc a01f 75bd
00000290: 3fe6 0cbe 22b3 18be c4dc 17bc 12de 053d
000002a0: 3114 18be 9880 fabd 0764 84be 291c aabd
000002b0: 8660 363c 9761 07be dd4f eabd 1167 40be
000002c0: 9f75 1cbe 3291 84be a570 2ebe 0ecf c2bd
000002d0: 02c5 56be fe72 a1bd cc69 81be 451a 1bbe
000002e0: 8f3f 2fbd bab3 2bbe 0f70 24be 23fa 94be
000002f0: 364b 24bd b821 87bd 19ce 29be cbee 1cbe
00000300: 54d4 f3bd f397 08be 42ac 17bc 0dd9 30be
00000310: f7e4 3dbe 09fb 60bd a805 c6bd 8451 47be
00000320: 909d 5fbd bc1b 91bd 2b0b d5bd 1c92 88bc
00000330: 42d1 87bd cdae 733d a86c c8bd 3c13 0bbd
00000340: 5882 dcbc ee68 09bd 3454 b23d b573 26bd
00000350: 037f 4cbd 69f5 b5bd 6dde 86bd 0b3a 883c
00000360: 7e72 a9bc 3943 0bbd 23cb c5bb c2c2 583d
00000370: f9bf b23d 4e39 8bbd b6fe 42bd aa7f 7dbd
00000380: 346a e9bd 5cb5 e7bc d62f 52bc 5f32 943d
00000390: 8cf2 c63c 0937 5e3d b4bd 173d 7045 853d
000003a0: dbe1 edbc 11a7 313d 2203 723d a4c7 843a
000003b0: 4425 623d 3547 80ba 4980 1d3b 3a75 923d
000003c0: 343c 073d c9e6 903c 8900 76bb cec0 53bc
000003d0: fd1c a13c fe2d 4fbc 55f0 f8bb 0f90 203d
000003e0: 3599 f33c 2a00 aa3b 676c 7fbd 8627 7cbc
000003f0: 2a66 1dbc d702 f8bc 455e d6bc b7dd a1bd

conv3.bias f4 [120]
0.03095297 -0.0051672556 0.04314544 -0.034418803 -0.06668838 0.06336616 0.10035878 -0.07920117
0.030238679 -0.14889504 -0.0034336299 -0.15607937 -0.16086854 -0.105741166 -0.057464678 0.07422731
0.029508375 -0.012888983 -0.10565342 -0.108073704 -0.17629541 0.037909254 0.008358938 -0.08177839
0.06529689 0.05180584 0.08090545 0.0067523983 -0.047297042 0.21799946 -0.038843162 0.20779075
-0.1958669 -0.06746216 -0.19832207 0.16309895 0.017939668 -0.06819381 -0.15789858 -0.04681833
0.1950835 0.01623698 0.0012435482 -0.1501545 0.031197015 -0.17776956 -0.027047297 0.16742787
0.028167455 -0.039736606 0.005383971 -0.0460889 -0.1533978 0.022043347 -0.17493695 -0.18499413
-0.08328609 0.04120756 -0.0867412 0.19802707 0.11196141 0.12248854 0.23404524 -0.022653567
0.13584189 0.22769006 0.139305 0.15241311 -0.16600643 -0.050913025 -0.012144555 -0.17053057
-0.055066712 -0.15739967 0.026733315 -0.008108298 -0.036361236 0.22371565 0.009685256 -0.060917623
0.10016986 -0.13737477 0.17870305 0.094962426 -0.04316237 -0.04946518 -0.013400335 0.1273103
0.15549354 -0.09971203 -0.045408577 -0.16104533 0.014070474 -0.032082587 0.016034227 0.05312209
0.024313409 -0.139472 -0.11622282 -0.028666006 -0.011176723 -0.18213625 0.056188654 -0.12508236
0.02880209 0.005016165 -0.11985012 -0.04627832 -0.022688448 0.0012825776 0.1392728 0.013860489
0.014706468 0.15880133 0.05532836 0.01494893 -0.027785795 -0.15606712 0.031268865 0.043696944
00000000: 1591 fd3c 1552 a9bb 46b9 303d bbfa 0cbd
00000010: eb93 88bd 1ec6 813d e788 cd3d 3934 a2bd
00000020: 1bb7 f73c f177 18be c006 61bb 45d3 1fbe
00000030: b9ba 24be d38e d8bd 1560 6bbd 7d04 983d
00000040: 8cbb f13c 502c 53bc d260 d8bd bf55 ddbd
00000050: c986 34be bc46 1b3d edf3 083c 6e7b a7bd
00000060: 60ba 853d 5c32 543d c2b1 a53d 3943 dd3b
00000070: 8bba 41bd 403b 5f3e 021a 1fbd 19c7 543e
00000080: 5591 48be 9a29 8abd f114 4bbe 6903 273e
00000090: 36f6 923c 32a9 8bbd 2ab0 21be 94c4 3fbd
000000a0: f8c3 473e 6a03 853c 8efe a23a 1ac2 19be
000000b0: e290 ff3c 3909 36be 4b92 ddbc 3672 2b3e
000000c0: 6fbf e63c dac2 22bd 066c b03b b7c7 3cbd
000000d0: 5014 1dbe 4094 b43c ac22 33be 1a6f 3dbe
000000e0: e691 aabd 42c9 283d 5fa5 b1bd 9cc7 4a3e
000000f0: 064c e53d 46db fa3d 8ea9 6f3e f993 b9bc
00000100: 231a 0b3e 9527 693e f8a5 0e3e 2f12 1c3e
00000110: 97fd 29be 2d8a 50bd f5f9 46bc 919f 2ebe
00000120: a28d 61bd 612d 21be d3ff da3c abd8 04bc
00000130: 85ef 14bd b715 653e e8ae 1e3c c284 79bd
00000140: db25 cd3d f9ab 0cbe effd 363e a97b c23d
00000150: 06cb 30bd 009c 4abd 148d 5bbc a25d 023e
00000160: b339 1f3e d235 ccbd 58fe 39bd 11e9 24be
00000170: d887 663c 0869 03bd 365a 833c 8c96 593d
00000180: ea2c c73c bfd1 0ebe 3b06 eebd f9d4 eabc
00000190: 931e 37bc ed81 3abe 1326 663d 9715 00be
000001a0: 5cf2 eb3c a45e a43b fb73 f5bd 568e 3dbd
000001b0: 20dd b9bc 2a1c a83a 879d 0e3e 1b17 633c
000001c0: 66f3 703c d19c 223e fe9f 623d 5bec 743c
000001d0: 099f e3bc 0fd0 1fbe c813 003d 91fb 323d

fc1.weight f4 [84, 120]
-0.038384985 0.07823846 0.005496359 -0.014248662 -0.013414214 0.028573425 0.008034109 -0.026912892
0.046764366 0.011265805 -0.016688414 -0.042567078 0.0041900515 -0.066750176 2.6083171e-06 -0.09073267
0.069965325 -0.055645276 -0.01731568 -0.0867317 -0.078595415 0.07593443 0.02006703 -0.02070393
-0.08458861 -0.036241103 -0.0748845 -0.0809025 0.071675956 0.021116074 -0.042011783 -0.0067466227
-0.06944979 0.04797883 -0.024639029 -0.04907673 -0.0320686 0.054501332 -0.05509063 -0.073266186
-0.05286277 -0.06275974 -0.0015936014 0.027554544 -0.060940787 -0.03951789 -0.049737267 -0.0022349474
-0.07066026 -0.052405924 -0.08129805 0.020511627 0.0082132425 -0.0064164074 -0.0084296735 -0.06731159
-0.031365898 0.05775715 0.013557989 0.053040285 -0.011902115 -0.03507124 -0.07238948 0.072961785
0.06949276 0.029966619 -0.07106433 0.08083537 0.09220733 0.0782724 -0.045269772 -0.073260844
0.020293312 0.0012204854 -0.011508457 -0.03004064 -0.06962638 -0.03666464 0.089032516 -0.04109029
0.07684236 -0.08558431 0.057401106 -0.008801856 0.07972801 0.034070805 0.058843907 -0.08584191
-0.052546598 -0.064151265 -0.044958387 0.071186185 -0.0077707674 -0.03034263 -0.0299246 0.0064550745
-0.05704248 -0.06027106 -0.018593315 0.063486025 0.018612973 -0.088617265 0.030263158 -0.060780566
-0.069233954 -0.052231453 -0.005760932 0.07079405 -0.014416299 0.06133893 -0.06984034 0.004366451
0.038851663 -0.033437867 0.06761704 0.06544131 0.035489723 -0.025936278 0.0008873042 -0.005012166
-0.04434124 -0.017406534 -0.05885147 -0.018014174 -0.0824149 0.08133951 0.13067888 0.117164195
-0.1628366 -0.03507752 0.08574915 0.12958866 -0.04903693 0.07154207 0.029753236 0.07920407
-0.060147993 -0.031800892 0.06680023 0.03828605 -0.019848876 -0.0744545 -0.051932573 0.07461791
0.110195145 0.03872592 0.0042107995 0.002448462 -0.045143243 -0.0014904636 -0.034852188 0.08748949
-0.026263155 -0.029351145 0.11886888 -0.14154385 0.078894146 0.04581171 0.0553312 -0.059320528
0.010654621 -0.09958948 0.03544853 0.015635876 -0.014767461 0.02904182 0.06077401 0.07984981
0.07502475 -0.051885676 0.026724825 0.0104073705 -0.009895906 0.069002405 -0.044717032 0.027314458
0.004283727 -0.32172456 0.0873553 0.069583975 -0.08943893 -0.07289305 0.08392782 -0.09861868
-0.05010339 0.06603777 0.008329483 0.028013017 0.06892204 -0.05966878 0.022462115 -0.017650358
0.015505649 -0.0068976167 0.04189788 0.06008656 0.027040629 -0.07325882 -0.03244108 -0.0040530576
0.019564366 -0.1588482 0.06123799 -0.031753596 0.023589846 0.026076732 0.107440576 -0.10216565
-0.065678194 -0.006577798 -0.06657428 -0.01825661 -0.0032063737 -0.24440576 0.001240465 0.046504464
-0.43437862 -0.014943067 0.02192212 0.048555017 -0.09340567 0.028043043 -0.14558184 -0.037168533
0.045847997 -0.07416107 0.03014036 -0.07929423 -0.1093404 -0.010761651 -0.051249005 0.021171633
-0.1740453 -0.024545817 0.07419304 0.045360718 0.0691616 -0.04785473 -0.06078376 -0.01706576
-0.066757664 0.049058165 0.009367718 -0.018710596 -0.08980258 0.014697472 -0.06490887 -0.07537799
-0.0770774 0.033861287 -0.032699566 -0.065386616 0.07424695 0.018124219 0.006444023 -0.021276053
00000000: 9339 1dbd 7c3b a03d cd1a b43b 3873 69bc
00000010: 4bc7 5bbc d112 ea3c 7fa1 033c 6d78 dcbc
00000020: fe8b 3f3d 3694 383c 24b6 88bc d15a 2ebd
00000030: b34c 893b 51b4 88bd 8c0a 2f36 0dd2 b9bd
00000040: fb49 8f3d 4dec 63bd 9dd9 8dbc 64a0 b1bd
00000050: a2f6 a0bd 8383 9b3d 9d63 a43c 4a9b a9bc
00000060: cb3c adbd 8d71 14bd 0b5d 99bd 36b0 a5bd
00000070: d8ca 923d 9efb ac3c 8c14 2cbd c612 ddbb
00000080: b13b 8ebd 7385 443d cad7 c9bc ae04 49bd
00000090: 5d5a 03bd ca3c 5f3d b6a6 61bd 950c 96bd
000000a0: a286 58bd 2e88 80bd 64e0 d0ba 11ba e13c
000000b0: 0c9d 79bd 83dd 21bd 4eb9 4bbd 3278 12bb
000000c0: 54b6 90bd 98a7 56bd 987f a6bd 0008 a83c
000000d0: d690 063c ba40 d2bb 9d1c 0abc a9da 89bd
000000e0: 8779 00bd c392 6c3d 5422 5e3c c540 593d
000000f0: 1701 43bc dca6 0fbd f040 94bd fd6c 953d
00000100: 3852 8e3d 8e7c f53c 2d8a 91bd 048d a53d
00000110: 32d7 bc3d 484d a03d cc6c 39bd c809 96bd
00000120: 293e a63c b2f8 9f3a f88d 3cbc ca17 f6bc
00000130: 4798 8ebd a92d 16bd ae56 b63d 4b4e 28bd
00000140: 875f 9d3d d446 afbd 6c1d 6b3d a935 10bc
00000150: 7048 a33d d48d 0b3d 4f06 713d e2cd afbd
00000160: 1a3b 57bd bd61 83bd 4926 38bd 10ca 913d
00000170: eca1 febb 1b91 f8bc 6f24 f5bc 1785 d33b
00000180: 60a5 69bd c9de 76bd 0251 98bc f604 823d
00000190: 3c7a 983c f87c b5bd 71ea f73c 0bf5 78bd
000001a0: 88ca 8dbd a6f0 55bd 33c6 bcbb 79fc 903d
000001b0: 5732 6cbc 883e 7b3d 7408 8fbd 7214 8f3b
000001c0: ec22 1f3d 25f6 08bd cd7a 8a3d 1806 863d
000001d0: ac5d 113d 5178 d4bc fa99 683a 193d a4bb
000001e0: 299f 35bd 2698 8ebc 3d0e 71bd 7692 93bc
000001f0: 25c9 a8bd 5495 a63d afd0 053e c8f3 ef3d
00000200: a3be 26be 72ad 0fbd 409d af3d e4b2 043e
00000210: f3da 48bd a684 923d 0fbd f33c be35 a23d
00000220: be5d 76bd a741 02bd 8fce 883d d5d1 1c3d
00000230: 1c9a a2bc 9a7b 98bd 40b7 54bd 46d1 983d
00000240: fead e13d 129f 1e3d bffa 893b 6076 203b
00000250: 1fe8 38bd a95b c3ba 2bc1 0ebd b12d b33d
00000260: d425 d7bc d071 f0bc 8771 f33d dff0 10be
00000270: 4193 a13d 0fa5 3b3d f8a2 623d 15fa 72bd
00000280: b890 2e3c 92f5 cbbd 7a32 113d cf16 803c
00000290: 39f3 71bc 1ce9 ed3c 2bee 783d 4c88 a33d
000002a0: 93a6 993d 1386 54bd 05ee da3c ad83 2a3c
000002b0: 7022 22bc 2251 8d3d 3529 37bd 92c2 df3c
000002c0: 825e 8c3b 15b9 a4be 56e7 b23d 0b82 8e3d
000002d0: c22b b7bd f448 95bd 59e2 ab3d 97f8 c9bd
000002e0: 3639 4dbd cf3e 873d 6278 083c 8e7b e53c
000002f0: 0027 8d3d 4067 74bd 7802 b83c 7c97 90bc
00000300: 680b 7e3c 6705 e2bb 1d9d 2b3d 531d 763d
00000310: 4f84 dd3c b808 96bd f0e0 04bd 83cf 84bb
00000320: 7345 a03c 1aa9 22be b0d4 7a3d 0f10 02bd
00000330: 7e3f c13c df9e d53c ce09 dc3d 393c d1bd
00000340: 4a82 86bd 928a d7bb 1958 88bd e38e 95bc
00000350: 0622 52bb 8145 7abe 1997 a23a 777b 3e3d
00000360: e066 debe c4d3 74bc 0596 b33c a0e1 463d
00000370: 794b bfbd 86ba e53c 6813 15be 083e 18bd
00000380: 1ccb 3b3d c2e1 97bd ebe8 f63c 0365 a2bd
00000390: dced dfbd a351 30bc 7aea 51bd 2270 ad3c
000003a0: ee38 32be 4f14 c9bc 85f2 973d 29cc 393d
000003b0: 99a4 8d3d 5203 44bd 64f8 78bd 7ecd 8bbc
000003c0: 3eb8 88bd 37f1 483d 0f7b 193c f746 99bc
000003d0: 6aea b7bd aacd 703c f1ee 84bd c75f 9abd
000003e0: c2da 9dbd 22b2 0a3d fbef 05bd 6be9 85bd
000003f0: c90e 983d 3e79 943c 6228 d33b 1e4b aebc

fc1.bias f4 [84]
0.029881414 -0.037725378 0.033084635 -0.059403423 -0.031066837 -0.099589996 -0.09404914 0.11014262
0.00082294014 0.061181996 0.19217144 0.19452718 0.11047325 0.009720853 -0.12230604 0.15992814
-0.10056307 -0.04943488 -0.03943094 -0.10678297 -0.102181606 -0.04915134 -0.05389276 -0.13296099
-0.16276284 0.054196775 0.123957984 -0.18072513 0.042989474 0.07213003 -0.031404175 0.12254493
-0.0070398576 -0.083639726 -0.065537356 -0.0028328039 0.011197816 -0.17834865 -0.004535608 -0.08806904
0.18340425 -0.024796883 -0.16077481 -0.015715685 0.12715283 0.110439606 -0.026329277 -0.20736718
0.22384778 -0.12897208 -0.01736382 0.05868159 -0.093595065 0.028284885 -0.005884477 -0.102287516
-0.096464485 0.02726288 -0.099379666 0.06424495 -0.014632412 -0.1342007 -0.19446267 0.03126002
-0.004378096 0.17183857 0.020946901 -0.08608007 0.13692883 0.13723813 0.22743657 0.09053928
-0.14700864 -0.07508069 0.07357549 -0.041835915 -0.12738375 0.11363834 0.03504095 0.008640523
-0.14165331 0.12716986 0.026460879 0.12196282
00000000: dec9 f43c ed85 1abd c183 073d 0151 73bd
00000010: e17f febc d7f5 cbbd d69c c0bd 7492 e13d
00000020: 94ba 573a f999 7a3d 97c8 443e 2232 473e
00000030: cd3f e23d 3644 1f3c 977b fabd 34c4 233e
00000040: 03f4 cdbd 3b7c 4abd 5682 21bd 08b1 dabd
00000050: 9744 d1bd ea52 49bd a8be 5cbd ed26 08be
00000060: 4dab 26be 70fd 5d3d afdd fd3d 0210 39be
00000070: bb15 303d e9b8 933d aaa1 00bd d6f8 fa3d
00000080: 9bae e6bb 4e4b abbd 7338 86bd 90a6 39bb
00000090: 0b77 373c 07a1 36be 709f 94bb 8a5d b4bd
000000a0: 53ce 3b3e d522 cbbc 27a2 24be 2ebe 80bc
000000b0: 5a34 023e 292e e23d 7fb0 d7bc 1058 54be
000000c0: 5a38 653e 4211 04be 923e 8ebc 1b5c 703d
000000d0: c5ae bfbd b4b5 e73c 92d2 c0bb 1e7c d1bd
000000e0: 2c8f c5bd 6756 df3c 9187 cbbd db92 833d
000000f0: c9bc 6fbc e96b 09be 3921 47be 820a 003d
00000100: 2276 8fbb 73f6 2f3e d698 ab3c bf4a b0bd
00000110: 1237 0c3e 2788 0c3e 22e5 683e a86c b93d
00000120: 6f89 16be e8c3 99bd bfae 963d 235c 2bbd
00000130: e370 02be 38bb e83d 1987 0f3d fb90 0d3c
00000140: 910d 11be d138 023e 7cc4 d83c a5c7 f93d

fc2.weight f4 [6, 84]
0.049022067 -0.020073788 0.046725497 -0.012548905 -0.106847145 -0.42800894 0.07993594 0.05879937
0.09077043 0.15164231 -0.030576333 0.023967786 -0.09084975 -0.07418468 0.045226913 0.04346719
-0.018654097 -0.003075446 0.1444056 0.060434345 0.09154766 -0.28715643 -0.00034346984 0.09539489
-0.2777899 -0.07013283 0.10404262 0.016049787 -0.013696146 -0.22792304 -0.088663995 -0.35095754
0.12531017 0.14869213 0.040091187 0.09860692 -0.005082521 -0.016424494 0.07894657 -0.25239816
-0.112998925 0.101508774 -0.106777936 -0.106955744 -0.07193629 0.15537104 0.02889751 -0.19434981
0.08906459 0.0033330412 0.012842923 -0.3350577 -0.15020414 0.056173366 0.101607144 -0.15944904
0.03814055 0.055783235 0.014219494 0.0866993 -0.12638536 -0.15847993 -0.0077425665 0.035108723
0.118316166 0.029411765 -0.1604223 0.0768156 0.04954685 0.09373859 0.099922836 -0.12154413
0.03728788 0.06564701 -0.0010125777 0.059897576 0.01009916 -0.28467044 0.10881757 -0.036635347
0.12940776 0.09253499 -0.16539283 -0.4083809 -0.10237075 0.024939766 -0.032902073 7.7622535e-05
0.07902208 0.23827416 -0.07415012 -0.13512947 0.06811925 -0.18045312 0.098864004 0.0793766
-0.0048724944 0.07613493 0.13587917 0.11641978 -0.14222845 0.00093576533 -0.12984906 -0.16897926
-0.23582673 -0.07037489 -0.040810928 -0.20833215 -0.08726064 0.042084504 0.073817186 -0.1652445
-0.015094688 0.15222996 0.07060588 0.077236906 -0.254443 -0.09593587 -0.046353556 -0.051656242
-0.07187502 -0.101287395 -0.10607234 0.042306617 0.12916213 0.040945746 -0.13121329 -0.088151015
0.21887651 -0.08994352 -0.024659121 -0.085844986 0.1373968 0.06733356 -0.07029437 0.1583593
-0.08879108 -0.004203165 0.029402247 0.1721462 -0.04568402 -0.10581415 0.09852514 -0.29902223
0.103796326 0.119409256 -0.3306236 -0.058018297 -0.1896234 -0.032387044 0.105398774 -0.3317249
-0.056361992 0.18463819 0.17522816 0.13352767 -0.17739414 -0.009547254 0.1631973 -0.08008134
-0.1470519 0.13206203 -0.09099897 0.0784309 -0.23420373 0.052002423 -0.012738223 0.07451966
-0.087994896 -0.20225534 -0.062034477 -0.0504723 0.1071503 -0.032462183 -0.07931936 -0.112250604
-0.0019196811 -0.062480703 0.10019873 0.057319924 -0.10110631 0.023305414 0.11041503 -0.28112423
0.07763922 -0.08928488 0.037696317 0.07384955 -0.098744765 0.120436914 -0.020616837 0.14088699
0.12358344 0.07652113 -0.18716395 -0.074636005 -0.14059871 0.08078292 0.022004625 0.12006035
-0.093874514 -0.012701907 0.06714125 0.09230814 0.04724232 -0.08454741 0.032866426 0.1964173
0.0053429534 0.0153262755 0.10993776 -0.07111855 -0.2917953 0.026778836 -0.13230608 -0.005253418
-0.004227066 0.01483796 0.040043883 -0.28397068 -0.06319486 0.14645216 0.1009254 -0.012941668
-0.057178047 -0.11755165 0.106281 -0.09279976 -0.11277224 0.08520338 0.041284423 0.060615648
0.07972591 -0.096767746 0.09881168 -0.080780216 -0.1849072 -0.08081562 -0.008722312 0.16011061
-0.08094377 -0.11113201 -0.3612879 -0.048478607 0.097782835 -0.0054027503 0.091952175 -0.008272628
-0.014249197 0.0047495705 0.1471838 0.020347482 -0.0824237 0.110943586 -0.05531031 -0.018031891
00000000: 5dcb 483d c971 a4bc 3c63 3f3d ec99 4dbc
00000010: add2 dabd fd23 dbbe 74b5 a33d 9cd7 703d
00000020: d9e5 b93d 1f48 1b3e 387b fabc 1758 c43c
00000030: 6f0f babd 23ee 97bd db3f 393d a70a 323d
00000040: 7ad0 98bc 6c8d 49bb 10df 133e 018a 773d
00000050: 577d bb3d 2b06 93be be13 b4b9 655e c33d
00000060: 7a3a 8ebe cda1 8fbd 4c14 d53d d87a 833c
00000070: cd65 60bc a864 69be 7895 b5bd b5b0 b3be
00000080: 4f51 003e c042 183e a836 243d 6df2 c93d
00000090: 478b a6bb a98c 86bc bdae a13d 553a 81be
000000a0: fb6b e7bd d5e3 cf3d 64ae dabd 9d0b dbbd
000000b0: 5553 93bd 9619 1f3e 79ba ec3c a303 47be
000000c0: 7f67 b63d 276f 5a3b 206b 523c af8c abbe
000000d0: 1dcf 19be 0b16 663d 6817 d03d 9c46 23be
000000e0: 4439 1c3d f67c 643d e1f8 683c 678f b13d
000000f0: 2a6b 01be 9048 22be 5bb5 fdbb 2ace 0f3d
00000100: bf4f f23d f1f0 f03c be45 24be 7f51 9d3d
00000110: a3f1 4a3d 05fa bf3d 58a4 cc3d 21ec f8bd
00000120: 2dbb 183d f171 863d 78b8 84ba 2957 753d
00000130: f276 253c 53c0 91be bfdb de3d f20e 16bd
00000140: 7883 043e fc82 bd3d bd5c 29be 4d17 d1be
00000150: c1a7 d1bd 7b4e cc3c 53c4 06bd 48c9 a238
00000160: 54d6 a13d 24fe 733e 05dc 97bd 615f 0abe
00000170: 1b82 8b3d b4c8 38be 3679 ca3d 3390 a23d
00000180: 72a9 9fbb a1ec 9b3d e923 0b3e 7e6d ee3d
00000190: 56a4 11be 264e 753a 27f7 04be e608 2dbe
000001a0: 907c 71be b620 90bd 5c29 27bd 0655 55be
000001b0: b5b5 b2bd cd60 2c3d 772d 973d db35 29be
000001c0: b64f 77bc 2ce2 1b3e d199 903d 622e 9e3d
000001d0: 5a46 82be 077a c4bd 3add 3dbd 7f95 53bd
000001e0: 3633 93bd c46f cfbd 743c d9bd b449 2d3d
000001f0: 1443 043e bab6 273d c75c 06be 8588 b4bd
00000200: 2a21 603e 4f34 b8bd ed01 cabc 7fcf afbd
00000210: bfb1 0c3e 2de6 893d 7ff6 8fbd f128 223e
00000220: 19d8 b5bd b4ba 89bb fbdc f03c 1847 303e
00000230: 2b1f 3bbd 17b5 d8bd 8cc7 c93d 7119 99be
00000240: 2b93 d43d d78c f43d 7f47 a9be 98a4 6dbd
00000250: a32c 42be 47a8 04bd 50db d73d d9d7 a9be
00000260: d5db 66bd cb11 3d3e 036f 333e 7abb 083e
00000270: cfa6 35be 166c 1cbc 311d 273e b001 a4bd
00000280: c694 16be 453b 073e ab5d babd 61a0 a03d
00000290: 1ad3 6fbe 7e00 553d fbb3 50bc c39d 983d
000002a0: ab36 b4bd 061c 4fbe dd17 7ebd 0bbc 4ebd
000002b0: 9e71 db3d 11f7 04bd 3072 a2bd a5e3 e5bd
000002c0: cf9d fbba c4eb 7fbd fe34 cd3d 4cc8 6a3d
000002d0: d310 cfbd ffea be3c 4621 e23d 84ef 8fbe
000002e0: 5001 9f3d feda b6bd 7467 1a3d 6f3e 973d
000002f0: b23a cabd a1a7 f63d a4e4 a8bc ae44 103e
00000300: 5119 fd3d 1cb7 9c3d e8a7 3fbe c3da 98bd
00000310: 1cf9 0fbe 8471 a53d 0b43 b43c 33e2 f53d
00000320: 4841 c0bd a91b 50bc 5a81 893d 0d0c bd3d
00000330: 2a81 413d 3127 adbd f29e 063d 9e21 493e
00000340: f113 af3b 0f1b 7b3c 0c27 e13d 9aa6 91bd
00000350: 3266 95be 4a5f db3c 3f7b 07be dd24 acbb
00000360: 3383 8abb ea1a 733c 0e05 243d 9b64 91be
00000370: 4f6c 81bd 8ef7 153e fab1 ce3d 4a09 54bc
00000380: 8733 6abd ebbe f0bd daa9 d93d cd0d bebd
00000390: 22f5 e6bd 1c7f ae3d db19 293d 1d48 783d
000003a0: 5747 a33d 2b2e c6bd c75d ca3d 1970 a5bd
000003b0: 5058 3dbe a982 a5bd 07e8 0ebc 09f4 233e
000003c0: d9c5 a5bd 2e99 e3bd bafa b8be 8191 46bd
000003d0: 5e42 c83d 8e09 b1bb 6c51 bc3d eb89 07bc
000003e0: 7775 69bc 49a2 9b3b 5ab7 163e c3af a63c
000003f0: c2cd a8bd 6436 e33d 108d 62bd 9eb7 93bc

fc2.bias f4 [6]
-0.027508354 0.1809203 -0.035863627 -0.12731123 0.07970346 0.06570807
00000000: 3359 e1bc 2c43 393e bde5 12bd e05d 02be
00000010: 913b a33d f491 863d
