models/model2.pth (torch, 3134 bytes, 5 tensors)

fc1.weight f4 [10, 6]
00000000: a62a 02be d803 033f 1e56 18bd ded2 c43e
00000010: d247 113f 5936 053d 6a17 933e ef39 9c3b
00000020: f6ff 99be 2172 84be 58ac 193e 208b 80be
00000030: ac6a d63e f0c5 9e3e d185 8cbe 4e6a c4bc
00000040: d469 49be 0710 bb3e 1d6d 7fbe 7e91 69be
00000050: a356 763e 9434 0a3d 4a4a ef3e 6d35 97be
00000060: 721c e63d 06a9 14be 0a80 84be 7212 83be
00000070: 0594 ac3d ae41 483e a8ba 373e 5f1e 22bd
00000080: 26ea 973e 4425 973d 5b01 a1be 5b00 1cbe
00000090: 828b 023f 6842 393e e0e6 a7be 8f24 5f3e
000000a0: 96df 76bd f8fa babc 8d80 073d 4bff 31be
000000b0: 92b0 92be f47a cbbe 65f1 283e c57c 72be
000000c0: 0a69 27bd 937a 713e 290d bc3e 42e9 af3e
000000d0: a831 e8bd 9c5a 903e 0db3 8f3e 1553 79be
000000e0: f569 1fbe e3ce 82be 7d35 69be ed77 bf3d
-0.12711582 0.5117774 -0.037191503 0.3844213 0.56750214 0.032522533 0.287288 0.0047676484
-0.30078095 -0.25868323 0.1500715 -0.25106144 0.4187826 0.3101039 -0.27445844 -0.023976471
-0.19669276 0.36535665 -0.24943967 -0.22809407 0.24056487 0.03374155 0.46736366 -0.29532948
0.11235894 -0.14517602 -0.25878936 -0.2560001 0.0842667 0.19556305 0.17942297 -0.039579745
0.2967083 0.07380155 -0.31446347 -0.1523451 0.5099412 0.18091738 -0.3279333 0.2179129
-0.060271822 -0.02282475 0.03308158 -0.17382543 -0.28650337 -0.39742243 0.16498335 -0.23680408
-0.040871657 0.23581915 0.3672879 0.3435765 -0.11337596 0.2819413 0.28066292 -0.243481
-0.15567763 -0.25548467 -0.2277431 0.09349046

fc1.bias f4 [10]
00000000: a1f7 1cbe 616b 943e f230 26bd a1ac 3d3d
00000010: 41a8 92be f023 89be 012d 0f3e 785c 883e
00000020: f1de bb3e eee8 07be
-0.15328838 0.28988174 -0.04057402 0.04630721 -0.28643993 -0.2678523 0.13982011 0.26633048
0.36693528 -0.1327245

fc2.weight f4 [10, 10]
00000000: 08b9 66be 7561 14be f9fa 373e ed45 f83d
00000010: 1436 163e 8114 02be 8f83 9b3e 5ec8 0dbe
00000020: 7be1 333d 87a8 7b3d 2031 5f3e 518d 8b3d
00000030: ce87 543e ce7b 883b 2ca4 433e 5c08 4c3e
00000040: 6fe8 123d 5722 973e 0cb8 1cbe ac8e 003e
00000050: 7cf0 0bbe 8cd1 ecbd c123 ee3d 3fc6 913e
00000060: 2ef5 ff3d 50ed f5bd f20b 56bc a623 6a3e
00000070: 0f8d 9abe aa2f 893e 1831 ccbc 192e 693e
00000080: 3f76 2e3d 9328 27be f92a 5fbb 2240 aa3d
00000090: bfc2 9abe e36d 4cbe 75e1 0cbc 138f 14bd
000000a0: 1540 a83e 329c 2e3e d1a5 463e 5043 643e
000000b0: 1d1b 443e bc9b 033d 00b7 ff3d 0c45 ab3d
000000c0: 2956 3c3e 97c0 75be 7f43 653e dffa 12be
000000d0: d711 30ba 8763 cf3d 1408 183e 2bd1 483e
000000e0: a3a9 07bc 4a2b 42be df4b 44bd 6e3b 9c3e
000000f0: 46dd aabe 5aec 7e3e 4521 a4be 4838 86be
00000100: df52 a13e 9730 0c3e 5d14 17be 03dd ef3d
00000110: c019 c83d 4afd 013e 216b 8e3e 2d76 cdbd
00000120: 109a 4b3c b2df 66bc 065c 263e 9016 b3bd
00000130: 71c4 a43e eb9c 34be f916 df3d 24a8 fcbd
00000140: a36e 9d3e db66 03be c4f9 893d 7b29 16bd
00000150: 31b9 913e abc5 ccbd e74b 2b3e 298b 43be
00000160: b770 43bc c81b 333e 51ae 79be 80b5 7dbe
00000170: e836 a6bd 7d05 5f3e cdc1 10be e900 e5bc
00000180: 407c 803e 8e41 553e aedb 8f3e a8da d8bd
-0.22531521 -0.14490302 0.17966832 0.12122712 0.14669067 -0.12703134 0.3037381 -0.13845965
0.043916207 0.061440017 0.21796083 0.06814063 0.2075493 0.0041651493 0.19105595 0.19925064
0.035866197 0.29518387 -0.15304583 0.12554425 -0.13665956 -0.115634054 0.11627913 0.28471562
0.12497936 -0.120081544 -0.013064371 0.22865161 -0.30185744 0.26794177 -0.024925753 0.22771491
0.042593237 -0.16324072 -0.0034052713 0.083130136 -0.30226704 -0.19963793 -0.008598675 -0.03626926
0.3286139 0.17051771 0.19399191 0.22291303 0.19150968 0.03213094 0.12486076 0.08362779
0.18392242 -0.23999248 0.22389029 -0.14353512 -0.00067165255 0.10126405 0.14846832 0.19611041
-0.008280191 -0.18961826 -0.04792392 0.3051409 -0.33371943 0.24894848 -0.32056633 -0.26214814
0.31508538 0.1369041 -0.14753862 0.117120765 0.097705364 0.12694278 0.27816108 -0.10032306
0.012426868 -0.014091419 0.16246042 -0.08744538 0.32181123 -0.17637984 0.108930536 -0.12336758
0.30748472 -0.12832205 0.06737092 -0.036660653 0.28461602 -0.0999864 0.16728173 -0.19096054
-0.011928729 0.17491066 -0.24382903 -0.24776268 -0.08115941 0.21779437 -0.14136429 -0.027954536
0.25094795 0.20825788 0.2809729 -0.1058858

fc2.bias f4 [10]
00000000: 6650 96be bdc8 17be 44f2 28be a488 1a3e
00000010: af68 533e 2435 25be 0336 823e bec4 593d
00000020: 9a85 213e eb70 f7bd
-0.29358214 -0.1482267 -0.16498667 0.15091187 0.20645402 -0.16133553 0.25431833 0.053166144
0.15773621 -0.12082084

fc3.weight f4 [1, 10]
00000000: 8927 b2bd f366 4d3c bd19 32be 7e8e c4bd
00000010: 1306 f93e 1437 90be 88ac acbe 554a 9b3e
00000020: 40d8 8a3d 0ea0 1bbe
-0.08698947 0.012536752 -0.17392631 -0.09597491 0.48637447 -0.2816702 -0.3372538 0.30330148
0.06779528 -0.15197775
